smartTrash_API/weights_pth/best_model.pth (torch, 537573 bytes, 16 tensors)

lstm1.weight_ih_l0 f4 [512, 8]
00000000: 0552 e53d d2e7 a93e 8e66 573e ae71 293e
00000010: d51c 94bd a4f5 dc3d a095 b5bd b24f 573e
00000020: 1e4e fbbc 44a2 f0bd 5145 7a3d d910 91be
00000030: 0725 423e 8b3c f3bd 36a2 3b3d 9dd9 873d
00000040: d0ee 073d e2f9 d7bc 1857 1e3e 549f 81be
00000050: b4c4 593e e420 32be beb2 c83e ef03 623d
00000060: f384 e8bc f1f5 36be 40a4 8bbe 1082 633d
00000070: 09ff e3bc 8ae7 fcbc b10b cdbd 397e d0bd
00000080: 0346 a1be 6d42 69be b2ec d63e 6720 ae3e
00000090: 52eb 8abc f71d a3bd 541a 12be 33e0 1e3b
000000a0: 078b 64bd 8f86 ed3d fcf5 ac3e 7c6a a63c
000000b0: 5de1 8ebe e287 863b 5237 143f 796f 45bc
000000c0: 7949 0fbe 2d95 3dbe 5c1c 063d 66a5 9dbe
000000d0: 7f7a 3a3d af17 95bd 9db2 e43d 1037 cb3d
000000e0: ea95 963e e4ee 0f3e d0f1 37bf 5cf1 793c
000000f0: 5304 833d 590e 843d 78b2 473b 8512 34bd
00000100: 6423 d7bd 974f 3abe e87b 4cbb c240 11be
00000110: 515f 753d 82cf babc 549b d8bd f92e bc3d
00000120: 6e0e 11bf 116c 1a3e 5973 ee3d cf0c 453e
00000130: dfe5 2bbe 5d66 a4ba f244 be3e eec4 e3bc
00000140: f0da 6c3d 98a0 193e 5145 4f3e da3c 063f
00000150: cb30 bcbd bfa4 9d3d ed44 28bd 0f09 87be
00000160: d0b4 f3be de50 9e3d 0d0d 01be 01c2 b7bd
00000170: 703b 68be 185b eabb 8ab6 8c3e 6521 643e
00000180: 7560 f8bd 540a 32bc e513 b9bd 4127 bdbd
00000190: 50e7 22be 99b1 eebd f638 5c3e 32d9 26be
000001a0: 49c4 46bd 2477 a1be 4e07 21be 82bd 923d
000001b0: 2f4a 60be 06b7 2abd 9176 cc3d 2544 2cbd
000001c0: 8c59 f43d f162 6abe c80b bbbe 6729 5ebd
000001d0: a27c 8bbc a69e 193e 8b9a debd 242f 1e3e
000001e0: 9183 903e 9917 8d3e e488 863e ecf3 dbbe
000001f0: 5a30 69be 00d1 15bd cdba b33e ddbf c3bc
00000200: cda3 533f 5dcc 153f 8d0d cebe 07db 333e
00000210: 5a89 20be e464 1b3e 6d91 233f 14b8 e7bd
00000220: a580 38be 7127 6ebe 5e6c d93d 9382 24be
00000230: 9f2b 16be d9e2 24bd 278d 8ebe 4432 dfbc
00000240: a2b2 8cbd 8394 c03e 8a6e de3e 7714 283f
00000250: 35f9 bb3e e934 a73e 9459 b73c d3f0 313d
00000260: 90be 4ebe 2007 ddbe 3484 12bf 3cf1 5c3e
00000270: 750b b7be 1c43 49be aea2 593e 75af 053f
00000280: 91eb 833d 22cb 5abe 67be ff3d 0267 dd3b
00000290: 2750 893e 14f6 963e fdf7 62be 66c2 f6bc
000002a0: 45cb d3bd 340f 97be 2a5f 71bc bb0c 8ebe
000002b0: b7ec 1b3d 1e36 1abe ebdb 9f3e 800f 94be
000002c0: 79fc 303c fc5c 94be 8388 6b3f 93e9 5e3b
000002d0: dd3d 55be 6765 b6bd b4f5 1dbe f511 12bf
000002e0: 81d3 5abe 8ab7 b6bd 6fb3 15be 99c0 a93e
000002f0: c09c e3bd a062 08be 7134 90bd c843 1d3e
00000300: db39 b7be cee8 86be 982c 513f 20f0 093e
00000310: 0163 db3d 268d 3cbe bf83 393e 5220 a03e
00000320: 4f31 fabd 911b ecbc e390 10bc 5037 0ebd
00000330: f42b 9a3e 99b8 163e ef87 523e 0152 22be
00000340: 4f2c 60bf 2ae9 e1bb 47a6 97be 2592 24be
00000350: 47c7 613c 12a6 7e3e 1173 de3d 5cd0 5d3e
00000360: d2d4 4e3f 973b 1f3f 45c5 19be 741c cb3e
00000370: c768 b1be 280d f7bd feff 96be 2726 0cbe
00000380: db3f aabe c4f7 07bf e01a 213e b3bc 53be
00000390: 981e efbd 7ecb 85bd 3810 cc3e c995 cb3d
000003a0: 9ed1 5ebe c9a3 bcbe c24f 28bd fbe6 a43d
000003b0: eec3 c53c 94eb 8bbd 320c 493c 5a69 ba3d
000003c0: 50a0 fd3d 90b9 f5be dc91 31be 4504 88bb
000003d0: 3c87 bd3d a031 69be 74a3 71bd 46b6 003e
000003e0: 93aa 52be 8eed a9bd e802 c63e 146f 443e
000003f0: 6867 d2bb b5aa 2a3d ea53 a83d 2d71 973e
0.111972846 0.33184677 0.21035215 0.16547272 -0.07232062 0.1078904 -0.08866429 0.21026495
-0.030676898 -0.117497 0.06110126 -0.28333166 0.18959437 -0.11876782 0.045808993 0.06633303
0.033186734 -0.02636427 0.15462911 -0.2531687 0.21266443 -0.1739536 0.3919887 0.055179533
-0.028383708 -0.17867257 -0.2727375 0.05554396 -0.027831571 -0.030872125 -0.100119956 -0.10180325
-0.31498727 -0.22779246 0.4197746 0.34009096 -0.016957913 -0.079647 -0.14267856 0.002424252
-0.05579665 0.11597931 0.3378142 0.020314448 -0.27906314 0.004105554 0.5789691 -0.012050503
-0.13992871 -0.18513937 0.03274189 -0.30790251 0.045526978 -0.07279908 0.1116688 0.09922612
0.2941125 0.14055973 -0.7185335 0.015255298 0.06397309 0.06448049 0.0030471366 -0.043962974
-0.10504797 -0.18194424 -0.0031201784 -0.1418486 0.059905354 -0.022804026 -0.105765015 0.09188647
-0.5666264 0.15080287 0.116430946 0.19243167 -0.16786908 -0.0012542714 0.37161976 -0.027803864
0.057825983 0.15002668 0.20241286 0.524366 -0.09188994 0.076974384 -0.041081358 -0.263741
-0.47598886 0.07730268 -0.12602635 -0.0897255 -0.22678924 -0.0071519725 0.27483016 0.22278364
-0.12127773 -0.01086672 -0.09036998 -0.09236003 -0.15908551 -0.11654968 0.21506104 -0.16293791
-0.048527036 -0.3153621 -0.15725443 0.07165052 -0.21903299 -0.04167845 0.09983552 -0.042057175
0.11931142 -0.22889306 -0.36532426 -0.054238703 -0.017027203 0.15001926 -0.108693205 0.1544767
0.28225377 0.27557066 0.26276314 -0.42959535 -0.22772351 -0.03657627 0.35103455 -0.023895198
0.82671815 0.5851496 -0.40244713 0.17564021 -0.15677395 0.15175205 0.6389378 -0.11314407
-0.18017824 -0.23257233 0.106163725 -0.16065435 -0.14665078 -0.0402554 -0.27842066 -0.027245648
-0.06870009 0.37613305 0.4344371 0.65656227 0.36713567 0.32657555 0.022381581 0.04344256
-0.20189881 -0.43169498 -0.57232976 0.21576399 -0.3575093 -0.19654506 0.21253464 0.5222085
0.06441415 -0.21366552 0.12487488 0.0067566643 0.26818964 0.29484618 -0.22164913 -0.030121993
-0.10341505 -0.29503787 -0.014732162 -0.27744088 0.038067546 -0.15059707 0.31222472 -0.28918076
0.010802382 -0.2897719 0.92005175 0.0034013733 -0.2082438 -0.0890606 -0.1542576 -0.5705865
-0.21369745 -0.08921726 -0.1461923 0.33154753 -0.11113882 -0.13318872 -0.070412524 0.15357888
-0.35786328 -0.2634949 0.8170867 0.13470507 0.10712243 -0.18413219 0.18116663 0.31274658
-0.12216436 -0.028821738 -0.008823606 -0.03472072 0.3011166 0.14718856 0.20559667 -0.15851595
-0.8756761 -0.0068942504 -0.29619047 -0.16071375 0.013780422 0.24868038 0.10861791 0.21661514
0.8079349 0.622003 -0.15016659 0.39670146 -0.3465025 -0.12063056 -0.29492182 -0.13686429
-0.33251843 -0.53112435 0.15732908 -0.20677452 -0.11675757 -0.06532954 0.39856124 0.099406786
-0.2175965 -0.36843708 -0.041091688 0.080518685 0.024141278 -0.06832042 0.012270974 0.091021255
0.12384093 -0.47993135 -0.17340797 -0.0041508996 0.092543095 -0.22772837 -0.05899377 0.12569532
-0.20572881 -0.08297263 0.38674092 0.19182998 -0.0064210184 0.041666705 0.0821913 0.29578534

lstm1.weight_hh_l0 f4 [512, 128]
00000000: 791c 963e d162 253e 7b96 573e b735 5e3e
00000010: 5818 18be 7c5c 12bf 3017 49bd 9c8a 70bd
00000020: d25d 5abe 0296 2fbe 7608 b2bd 952e 7dbe
00000030: 53b2 dc3d 9a7e 163e df6c 8d3d d009 7f3e
00000040: afe9 3ebe e0aa a0be 25b0 783e ecba 5ebc
00000050: e9e5 8cbd 7760 433f 6686 efbe e93e da3c
00000060: 45d6 de3e c117 a63c 0992 6b3d 7f25 88bd
00000070: 7687 4c3c 349e 30be e4b6 593c b88f 9f3e
00000080: baa4 c13d e735 09be 323b 573e efb5 4cbc
00000090: 8df9 abbd b730 dc3b ae80 9a3c a755 c1be
000000a0: a688 efba 9458 293d adfb aabe 74b0 ebbd
000000b0: e6f0 7e3e 5f40 3c3e 97e6 5a3e 662f ebbc
000000c0: 5c3c b13e 4071 043e 95b9 c1be 318e aabd
000000d0: 15ed 29be e248 7ebe c47e a6be 24e5 ed3d
000000e0: 9afc 89be 9a47 35be c57c e83d 8783 893e
000000f0: 6f15 97bd 8029 1bbe 7ea3 433e 981e 143d
00000100: 7cf9 633e 4717 ccbc 59c1 12be 03a6 c3be
00000110: ce3f 89be d946 c3bd 2d7e 623e 54b3 b8be
00000120: 2e07 c83e 90f5 703e 3086 f83e 7c6d 183e
00000130: 40c7 72be 22ba 173e f692 f6bd 9c19 8abd
00000140: 0cd3 0c3e e36f 333e abb8 66be fdb1 5fbc
00000150: 5f70 a1bc a9bd 8e3d fa39 af3e 264b b13d
00000160: 28a7 923e 02d9 6d3e f5f0 3cbd 1edc c3be
00000170: 8b5a 6d3d 07d6 1abe c76f 0a3e 4f03 ac3d
00000180: d01a c2bd d80c 113e d703 903d e87e 543e
00000190: a722 1c3e 2436 923e a5ac 18bf 2876 033e
000001a0: f266 8d3e 65d1 863e 6408 9a3d ceb2 31be
000001b0: c8ee a53e 27a7 34be 7ebe 77bc f808 163e
000001c0: 0eef 1b3f cc5a 0cbf 9b9c d03d 08ed f33e
000001d0: c250 acbe bf94 c7bb 9152 9bbe 4c19 983d
000001e0: 0a1e 3cbd 435c a73e e9d5 8d3e d63d 97bd
000001f0: 31b2 ad3d 3b5d 8bbe a19b 90be 46cf 243d
00000200: ace0 a2be 7238 5f3d 60e0 353e bb81 5b3e
00000210: a794 4f3e 101b 6ebe b6fb 143e 6646 133e
00000220: 2c4b abbe 85b4 243e 7514 e93c a470 04bd
00000230: 74ea 88bd 3682 8abe 478a 87bd c4de 65be
00000240: 1443 e73e 2a55 4dbe bd7f afbd 420e d7be
00000250: 6081 3dbe 7b6d 813e 34b1 bdbe c73d f73d
00000260: 4393 03bf b637 73be 4634 423d 50e6 2dbf
00000270: 310e d53e 2dd9 8bbe ce38 d8bd 1fb0 8abd
00000280: 8209 173e 5425 36be 93f7 70be 12b9 093f
00000290: 06b8 233e 44d6 fdbd 3b1e 6d3c 6fa7 10be
000002a0: 24df 653e 4162 203f a3d4 803d c3a2 1bbd
000002b0: ff6a 6dbe b699 113e 9a93 a83e 85fb 43bd
000002c0: c079 e13d 693d 39be b62f 1c3e 807e 93be
000002d0: bb35 cf3e 43e7 c93c 4e8c 4dbe 5d20 f7bd
000002e0: d281 6e3e 08a5 143e 5ee5 c03e 99eb 753d
000002f0: 28c6 5f3e 3125 f1be 458b 963d abfa 17be
00000300: 05ad b8be f338 17be c8b8 02bf 0fef 0b3f
00000310: 1a1c 623d 255c aabe 5f79 4f3e c3ff 843e
00000320: d68b fc3e 541d 8f3d f80e 053e 3a85 c13c
00000330: 0d34 6e3e 7328 263d b91d b3bd a46c f83e
00000340: 962b e93d 5aca 363e 0cd2 d7bd 8ace 443e
00000350: 3302 db3e ca93 293e 74d6 743e 29c7 a6be
00000360: 80c2 9b3d 6780 99bd c97e 8e3e 987f 36be
00000370: 9787 11bd 5aed 27be 19aa aabe 7b60 0bbf
00000380: 3d49 46be 2c49 3c3e bf50 cbbe 5eff e5be
00000390: cd5f 22bc de34 03be 6462 86be c7d2 d3bb
000003a0: 8209 383e ae64 313e 6223 3c3e cb2a 253c
000003b0: 1320 7f3e d193 10be 6f01 b4be 0c80 0f3e
000003c0: 81f7 e43e 000d f0bd 7889 a9be 064c 20be
000003d0: 3823 56be 40b0 c9bd d6c4 88be be09 1a3d
000003e0: 7de7 99be 3fcf 4ebd 80e2 533e a3ec b4be
000003f0: aad1 a7be a317 6abe e7e5 dc3d 97c7 d83e
0.29318598 0.16150977 0.21053497 0.21700178 -0.14853036 -0.5717237 -0.04909438 -0.05872594
-0.21324852 -0.17147067 -0.0869302 -0.24724801 0.107762 0.14696732 0.06905531 0.24906087
-0.1864383 -0.31380367 0.24285944 -0.01359437 -0.068797894 0.7631907 -0.46782225 0.026641326
0.4352285 0.020274999 0.057512317 -0.06647777 0.012483468 -0.1724785 0.013288233 0.31164336
0.09455247 -0.13399468 0.21018675 -0.012494548 -0.083972074 0.0067196744 0.018860187 -0.3776066
-0.0018274977 0.04134424 -0.33395138 -0.11508265 0.24896583 0.1838393 0.21377026 -0.028709125
0.34616363 0.12933826 -0.378369 -0.08327902 -0.16594346 -0.2483249 -0.3251859 0.11615971
-0.26950532 -0.17703095 0.11351923 0.2685816 -0.07377135 -0.1515255 0.19105336 0.03616199
0.2226314 -0.024913443 -0.14331569 -0.38212594 -0.26806492 -0.095349975 0.22118445 -0.36074317
0.39067978 0.23531175 0.48539877 0.14885515 -0.2370882 0.14817098 -0.12039749 -0.06743166
0.13752383 0.1752315 -0.22531383 -0.013653276 -0.019706903 0.069697686 0.3422392 0.086569116
0.28643155 0.23227313 -0.046128232 -0.38253874 0.057947677 -0.15120707 0.13519202 0.083990686
-0.0947777 0.14165056 0.070319824 0.20751536 0.15247594 0.2855693 -0.59638435 0.12838042
0.27617604 0.2633163 0.07521132 -0.17353365 0.32408738 -0.17641889 -0.0151211005 0.14651859
0.60911644 -0.54826045 0.1018612 0.47641778 -0.33655363 -0.00609073 -0.3033643 0.074267
-0.045927085 0.32687578 0.27702263 -0.07384841 0.08481253 -0.27219567 -0.28243735 0.040236734
-0.31812036 0.05449719 0.17761374 0.21436207 0.2027155 -0.23252511 0.14549145 0.14382324
-0.3345579 0.16084488 0.028452137 -0.032333985 -0.066853434 -0.27052468 -0.06618171 -0.2244826
0.45168364 -0.20052019 -0.08569286 -0.42003065 -0.18506384 0.2527884 -0.37049258 0.1207233
-0.5139658 -0.23751721 0.047413133 -0.67929554 0.4161239 -0.2731413 -0.1055771 -0.06771874
0.1474972 -0.17787677 -0.23531942 0.5379802 0.15988168 -0.123943835 0.01447254 -0.14126371
0.22448403 0.62649924 0.06290557 -0.03799702 -0.23185347 0.14218792 0.3292511 -0.04784729
0.1100955 -0.18089832 0.15252575 -0.2880745 0.4047068 0.024646407 -0.20073053 -0.1206672
0.2329171 0.1451608 0.37674993 0.060039137 0.21852934 -0.47098687 0.07350782 -0.14841716
-0.36069503 -0.14767818 -0.51063204 0.5466165 0.05520258 -0.33273426 0.20261143 0.2597638
0.49325436 0.06988016 0.12993991 0.023623098 0.23262043 0.04056592 -0.087459035 0.48520386
0.113852665 0.17850628 -0.1053811 0.19219413 0.42775115 0.16560283 0.23909932 -0.32573822
0.07605457 -0.07495194 0.27831104 -0.1782211 -0.0355297 -0.16399136 -0.333329 -0.5444409
-0.19363876 0.18387288 -0.39710042 -0.44921392 -0.009910536 -0.12813136 -0.2624694 -0.0064643356
0.17972377 0.17323563 0.18372872 0.010081003 0.24914579 -0.14118887 -0.35157344 0.1401369
0.4472008 -0.117212296 -0.33112693 -0.15654 -0.20911872 -0.0984807 -0.26712674 0.037606947
-0.30059424 -0.050490614 0.20691872 -0.3533679 -0.32777148 -0.22860579 0.10786038 0.42339775

lstm1.bias_ih_l0 f4 [512]
00000000: 12cf 9d3d 29de f2bd 0a0b a5bd ee74 84be
00000010: c56f 58be 3824 9cbc 5de5 14be 2579 d83d
00000020: f214 2ebe 1aa3 2bbe b175 0cbd df55 dbbe
00000030: 68b5 b1bd bca1 77be bc94 dfbd 2865 2f3e
00000040: 46dd 333f d5b5 62be 703b abbd 3178 65be
00000050: 4e43 6bbe 4ae8 37be 56e8 8fbe 6a10 8dbe
00000060: 65cb 8dbe 00e8 4abe 8be1 c2be e2d4 323f
00000070: eb8e 9bbe be23 5ebe 8b0a f8bd c4ff 0fbe
00000080: 93de 3bbe eca7 06be 3223 fe3e 82f8 833e
00000090: d5c4 c43e efec e53c 4c2a df3e 91a2 443e
000000a0: 9660 b1be ac65 b93f ace0 bbbe ba9a 863d
000000b0: 13d7 473e abf4 1d3e 00a8 6dbe 2c2f 77bc
000000c0: 3aa0 98be 13c4 aabe 8b32 b2be c8d2 86be
000000d0: a909 c73e 9a31 c9be 8105 c8bd 10e9 36be
000000e0: a6e3 e73e f3fa 87be c964 b7be 62fc 193e
000000f0: 6996 c5be e1dd 4fbe 5ec5 8fbd 2d48 c2bd
00000100: 048f 793f e7ab 3abe 00d9 f43c fc47 c5bd
00000110: 89de 78be 6c2d 58be 1249 c4be b4d5 833e
00000120: 36df 23be 988b 81be 357c 8dbe bdb6 b9be
00000130: 7449 d4be d843 83be 3b80 8bbd 5f6a 3bbe
00000140: 32ba 19be 12f4 91be 7008 abbe f9d6 73be
00000150: f0b2 8f3d 3572 7a3d dac4 7b3e a62a 193e
00000160: c295 42be abea 9dbe 276b cc3b 6a9d ffbc
00000170: 2658 8c3e db31 43be 2376 c33e 6f63 7dbe
00000180: 68d4 b2be 1da0 3bbe 6c23 84be 9365 59be
00000190: ef84 54be 8d3d b8be ad74 a9bd 5848 343d
000001a0: fcf8 813d 2fb0 5a3e f6be 57be 943f c9be
000001b0: 2d01 6cbe 52ec 79be 9b85 4bbe fef1 cabd
000001c0: bb7e cebe 63f6 1ebe 3fef 913d 5aba 51be
000001d0: fc78 82be 667b 34be ae03 a5be f530 0cbe
000001e0: 8d34 a3be 1c34 90be 97e0 7ebe 6b12 22be
000001f0: 4cb7 b13d 5cfa acbe a4ea c8bd 0930 133e
00000200: c7e1 14bf f8ef 16bf 71b3 babe 4ff7 2bbf
00000210: 2026 633e 7dcb cfbe 2908 03bf 39e4 7fbe
00000220: 706b 2bbf f225 31bf aa32 efbe b739 a9be
00000230: e356 edbe c437 d63e 5e46 91be 92e5 2abf
00000240: b4d0 29bf a928 9dbe 6416 09bf 59c1 27be
00000250: 27c1 e3be d8cc c6be 0bf3 66be 8cec 1ebf
00000260: 517f acbe 386f 1ebf 1020 bcbe ccd8 36bf
00000270: 7d06 b3be b53a 06bf 9b09 28bf a112 01bf
00000280: d935 23bf 2224 9cbe a11f 2ebf 3f84 0abf
00000290: 2b4a c0be d4c2 45bf fa4a 18bf 2548 5cbf
000002a0: 4f21 2dbf 608a 0bbf 0533 bfbe 025d 9dbe
000002b0: 3c78 0cbf f55b 39bf cd17 01bf 232d 28bf
000002c0: c93d 8ebe 85e9 13bf 0fd7 c5be f188 d7be
000002d0: 4b57 3cbf 8bad ccbe 255f 08bf db3b 33bf
000002e0: 752c fabe ceab b9bd 14c8 a7be a3bb 43bf
000002f0: 3336 f6be 24c6 17bf 055e 15bf 6a0e 37bf
00000300: 3bcd 22bf c1db 6bbb 363a 05bf a98d 97be
00000310: 4827 bdbe f2fa 09bf 5b73 e7be 0078 d2be
00000320: b3a7 05bf 4a28 0abf 8c17 e2bd 5083 a5be
00000330: 7d8a 03bf e78b dcbe 7db6 2fbf e126 d9be
00000340: f616 c1be 2f05 083e 1778 0bbf 9c48 3abf
00000350: 8dc4 42bc ab92 29bf b8c9 5cbf e5ea 2dbf
00000360: 43f2 e9be 1f21 fabe 9f7b f6be 8cba 18bf
00000370: 6c05 35bf 2b1e 29bf b21c afbe d761 c3be
00000380: 0a64 c7be a1d7 d0be a317 e0be b147 e4be
00000390: 49ab dfbd fe4a febe 06b7 2cbf bdce 10bf
000003a0: beae 2cbf 59b4 17bf a65e 19bf b068 93be
000003b0: e2d1 eabe 0cf6 f9be a03e 4ebd 74e1 943b
000003c0: f0e0 12bd 0ace acbd d506 d6be feff 373e
000003d0: 8170 b9be 2163 2fbf 8446 11bf ed63 19bf
000003e0: 4a35 93be beed 4ebe d441 15bf d200 133e
000003f0: 54f0 0ebf 3b6b 25bf a0a5 18bf d1dd 27bf
0.07705511 -0.1185878 -0.08058746 -0.2587046 -0.21136387 -0.01906024 -0.1454062 0.105699815
-0.17000178 -0.16761437 -0.034291927 -0.42838952 -0.086771786 -0.2418279 -0.10917041 0.17128432
0.7025951 -0.22139676 -0.08360946 -0.2240913 -0.22974893 -0.17959705 -0.28106946 -0.27551585
-0.2769424 -0.19815063 -0.380627 0.69856083 -0.30382475 -0.21693322 -0.12111386 -0.1406241
-0.18346624 -0.13149995 0.49636227 0.25775534 0.3843142 0.02806708 0.43586957 0.19202639
-0.34644002 1.4484153 -0.3669485 0.065724805 0.19515638 0.15425365 -0.23208618 -0.01508693
-0.29809743 -0.33352718 -0.34804186 -0.26332688 0.38874558 -0.39295655 -0.09766675 -0.17862344
0.4529087 -0.26558647 -0.3581908 0.15037683 -0.38591316 -0.20299484 -0.07020067 -0.09486423
0.9748385 -0.18229638 0.02988863 -0.096328706 -0.2430364 -0.21111077 -0.38336998 0.2574898
-0.16003117 -0.25301814 -0.27633825 -0.3627223 -0.4146229 -0.25637698 -0.068115674 -0.18302296
-0.15012434 -0.28506523 -0.33404875 -0.23812474 0.070165515 0.061144073 0.24586812 0.14957675
-0.1900244 -0.308431 0.0062383595 -0.03120299 0.27411002 -0.19061987 0.3817607 -0.24744962
-0.34927678 -0.18322797 -0.25808275 -0.21230154 -0.20753835 -0.3598446 -0.08274207 0.044014305
0.06346318 0.21356271 -0.2106894 -0.3930632 -0.23047324 -0.24406555 -0.19875185 -0.099094376
-0.40331063 -0.15523677 0.07125711 -0.20481244 -0.2548293 -0.17625198 -0.3222937 -0.1369055
-0.3187603 -0.28164756 -0.24890362 -0.15827338 0.08677539 -0.3378476 -0.09810379 0.14373793
-0.5815701 -0.58959913 -0.36465028 -0.6717424 0.22182512 -0.40584937 -0.51184326 -0.24989404
-0.6696081 -0.69198525 -0.4671834 -0.33051845 -0.46355352 0.4183942 -0.28373998 -0.66756546
-0.6633408 -0.30695084 -0.5354979 -0.1638235 -0.444833 -0.38828158 -0.22553651 -0.6207969
-0.33690885 -0.61888456 -0.36743212 -0.71424556 -0.34965888 -0.5243333 -0.65639657 -0.5041905
-0.6375404 -0.30496317 -0.6801701 -0.5410804 -0.37556586 -0.7725041 -0.59489405 -0.86047584
-0.6762895 -0.5450802 -0.37343612 -0.30735022 -0.54870963 -0.7240594 -0.5042694 -0.65693873
-0.27781513 -0.577782 -0.3864064 -0.42096666 -0.735707 -0.39976153 -0.5327018 -0.7001321
-0.48862043 -0.09065972 -0.32769835 -0.76458186 -0.48088226 -0.59286714 -0.5834659 -0.7150637
-0.63594407 -0.0035989138 -0.5204195 -0.29600266 -0.36944032 -0.5389854 -0.45205197 -0.41107178
-0.52209014 -0.53967726 -0.110396475 -0.32326746 -0.5138319 -0.43075487 -0.6863783 -0.42412475
-0.3771283 0.13283227 -0.5448012 -0.72767043 -0.011887682 -0.6623942 -0.862453 -0.67936546
-0.45692644 -0.48853394 -0.4814119 -0.5965965 -0.707114 -0.6606166 -0.3420158 -0.38160583
-0.3894351 -0.40789512 -0.43768033 -0.44585946 -0.10921342 -0.4966659 -0.6746677 -0.5656546
-0.67454135 -0.59259564 -0.5991005 -0.28790808 -0.45863253 -0.4882053 -0.050352693 0.0045434777
-0.03585905 -0.08437736 -0.41802087 0.17968747 -0.36218646 -0.68510634 -0.56748223 -0.599181
-0.28751594 -0.20207879 -0.5830357 0.14355782 -0.5583546 -0.64616746 -0.59627724 -0.6557284

lstm1.bias_hh_l0 f4 [512]
00000000: 12cf 9d3d 29de f2bd 0a0b a5bd ee74 84be
00000010: c56f 58be 3824 9cbc 5de5 14be 2579 d83d
00000020: f214 2ebe 1aa3 2bbe b175 0cbd df55 dbbe
00000030: 68b5 b1bd bca1 77be bc94 dfbd 2865 2f3e
00000040: 46dd 333f d5b5 62be 703b abbd 3178 65be
00000050: 4e43 6bbe 4ae8 37be 56e8 8fbe 6a10 8dbe
00000060: 65cb 8dbe 00e8 4abe 8be1 c2be e2d4 323f
00000070: eb8e 9bbe be23 5ebe 8b0a f8bd c4ff 0fbe
00000080: 93de 3bbe eca7 06be 3223 fe3e 82f8 833e
00000090: d5c4 c43e efec e53c 4c2a df3e 91a2 443e
000000a0: 9660 b1be ac65 b93f ace0 bbbe ba9a 863d
000000b0: 13d7 473e abf4 1d3e 00a8 6dbe 2c2f 77bc
000000c0: 3aa0 98be 13c4 aabe 8b32 b2be c8d2 86be
000000d0: a909 c73e 9a31 c9be 8105 c8bd 10e9 36be
000000e0: a6e3 e73e f3fa 87be c964 b7be 62fc 193e
000000f0: 6996 c5be e1dd 4fbe 5ec5 8fbd 2d48 c2bd
00000100: 048f 793f e7ab 3abe 00d9 f43c fc47 c5bd
00000110: 89de 78be 6c2d 58be 1249 c4be b4d5 833e
00000120: 36df 23be 988b 81be 357c 8dbe bdb6 b9be
00000130: 7449 d4be d843 83be 3b80 8bbd 5f6a 3bbe
00000140: 32ba 19be 12f4 91be 7008 abbe f9d6 73be
00000150: f0b2 8f3d 3572 7a3d dac4 7b3e a62a 193e
00000160: c295 42be abea 9dbe 276b cc3b 6a9d ffbc
00000170: 2658 8c3e db31 43be 2376 c33e 6f63 7dbe
00000180: 68d4 b2be 1da0 3bbe 6c23 84be 9365 59be
00000190: ef84 54be 8d3d b8be ad74 a9bd 5848 343d
000001a0: fcf8 813d 2fb0 5a3e f6be 57be 943f c9be
000001b0: 2d01 6cbe 52ec 79be 9b85 4bbe fef1 cabd
000001c0: bb7e cebe 63f6 1ebe 3fef 913d 5aba 51be
000001d0: fc78 82be 667b 34be ae03 a5be f530 0cbe
000001e0: 8d34 a3be 1c34 90be 97e0 7ebe 6b12 22be
000001f0: 4cb7 b13d 5cfa acbe a4ea c8bd 0930 133e
00000200: c7e1 14bf f8ef 16bf 71b3 babe 4ff7 2bbf
00000210: 2026 633e 7dcb cfbe 2908 03bf 39e4 7fbe
00000220: 706b 2bbf f225 31bf aa32 efbe b739 a9be
00000230: e356 edbe c437 d63e 5e46 91be 92e5 2abf
00000240: b4d0 29bf a928 9dbe 6416 09bf 59c1 27be
00000250: 27c1 e3be d8cc c6be 0bf3 66be 8cec 1ebf
00000260: 517f acbe 386f 1ebf 1020 bcbe ccd8 36bf
00000270: 7d06 b3be b53a 06bf 9b09 28bf a112 01bf
00000280: d935 23bf 2224 9cbe a11f 2ebf 3f84 0abf
00000290: 2b4a c0be d4c2 45bf fa4a 18bf 2548 5cbf
000002a0: 4f21 2dbf 608a 0bbf 0533 bfbe 025d 9dbe
000002b0: 3c78 0cbf f55b 39bf cd17 01bf 232d 28bf
000002c0: c93d 8ebe 85e9 13bf 0fd7 c5be f188 d7be
000002d0: 4b57 3cbf 8bad ccbe 255f 08bf db3b 33bf
000002e0: 752c fabe ceab b9bd 14c8 a7be a3bb 43bf
000002f0: 3336 f6be 24c6 17bf 055e 15bf 6a0e 37bf
00000300: 3bcd 22bf c1db 6bbb 363a 05bf a98d 97be
00000310: 4827 bdbe f2fa 09bf 5b73 e7be 0078 d2be
00000320: b3a7 05bf 4a28 0abf 8c17 e2bd 5083 a5be
00000330: 7d8a 03bf e78b dcbe 7db6 2fbf e126 d9be
00000340: f616 c1be 2f05 083e 1778 0bbf 9c48 3abf
00000350: 8dc4 42bc ab92 29bf b8c9 5cbf e5ea 2dbf
00000360: 43f2 e9be 1f21 fabe 9f7b f6be 8cba 18bf
00000370: 6c05 35bf 2b1e 29bf b21c afbe d761 c3be
00000380: 0a64 c7be a1d7 d0be a317 e0be b147 e4be
00000390: 49ab dfbd fe4a febe 06b7 2cbf bdce 10bf
000003a0: beae 2cbf 59b4 17bf a65e 19bf b068 93be
000003b0: e2d1 eabe 0cf6 f9be a03e 4ebd 74e1 943b
000003c0: f0e0 12bd 0ace acbd d506 d6be feff 373e
000003d0: 8170 b9be 2163 2fbf 8446 11bf ed63 19bf
000003e0: 4a35 93be beed 4ebe d441 15bf d200 133e
000003f0: 54f0 0ebf 3b6b 25bf a0a5 18bf d1dd 27bf
0.07705511 -0.1185878 -0.08058746 -0.2587046 -0.21136387 -0.01906024 -0.1454062 0.105699815
-0.17000178 -0.16761437 -0.034291927 -0.42838952 -0.086771786 -0.2418279 -0.10917041 0.17128432
0.7025951 -0.22139676 -0.08360946 -0.2240913 -0.22974893 -0.17959705 -0.28106946 -0.27551585
-0.2769424 -0.19815063 -0.380627 0.69856083 -0.30382475 -0.21693322 -0.12111386 -0.1406241
-0.18346624 -0.13149995 0.49636227 0.25775534 0.3843142 0.02806708 0.43586957 0.19202639
-0.34644002 1.4484153 -0.3669485 0.065724805 0.19515638 0.15425365 -0.23208618 -0.01508693
-0.29809743 -0.33352718 -0.34804186 -0.26332688 0.38874558 -0.39295655 -0.09766675 -0.17862344
0.4529087 -0.26558647 -0.3581908 0.15037683 -0.38591316 -0.20299484 -0.07020067 -0.09486423
0.9748385 -0.18229638 0.02988863 -0.096328706 -0.2430364 -0.21111077 -0.38336998 0.2574898
-0.16003117 -0.25301814 -0.27633825 -0.3627223 -0.4146229 -0.25637698 -0.068115674 -0.18302296
-0.15012434 -0.28506523 -0.33404875 -0.23812474 0.070165515 0.061144073 0.24586812 0.14957675
-0.1900244 -0.308431 0.0062383595 -0.03120299 0.27411002 -0.19061987 0.3817607 -0.24744962
-0.34927678 -0.18322797 -0.25808275 -0.21230154 -0.20753835 -0.3598446 -0.08274207 0.044014305
0.06346318 0.21356271 -0.2106894 -0.3930632 -0.23047324 -0.24406555 -0.19875185 -0.099094376
-0.40331063 -0.15523677 0.07125711 -0.20481244 -0.2548293 -0.17625198 -0.3222937 -0.1369055
-0.3187603 -0.28164756 -0.24890362 -0.15827338 0.08677539 -0.3378476 -0.09810379 0.14373793
-0.5815701 -0.58959913 -0.36465028 -0.6717424 0.22182512 -0.40584937 -0.51184326 -0.24989404
-0.6696081 -0.69198525 -0.4671834 -0.33051845 -0.46355352 0.4183942 -0.28373998 -0.66756546
-0.6633408 -0.30695084 -0.5354979 -0.1638235 -0.444833 -0.38828158 -0.22553651 -0.6207969
-0.33690885 -0.61888456 -0.36743212 -0.71424556 -0.34965888 -0.5243333 -0.65639657 -0.5041905
-0.6375404 -0.30496317 -0.6801701 -0.5410804 -0.37556586 -0.7725041 -0.59489405 -0.86047584
-0.6762895 -0.5450802 -0.37343612 -0.30735022 -0.54870963 -0.7240594 -0.5042694 -0.65693873
-0.27781513 -0.577782 -0.3864064 -0.42096666 -0.735707 -0.39976153 -0.5327018 -0.7001321
-0.48862043 -0.09065972 -0.32769835 -0.76458186 -0.48088226 -0.59286714 -0.5834659 -0.7150637
-0.63594407 -0.0035989138 -0.5204195 -0.29600266 -0.36944032 -0.5389854 -0.45205197 -0.41107178
-0.52209014 -0.53967726 -0.110396475 -0.32326746 -0.5138319 -0.43075487 -0.6863783 -0.42412475
-0.3771283 0.13283227 -0.5448012 -0.72767043 -0.011887682 -0.6623942 -0.862453 -0.67936546
-0.45692644 -0.48853394 -0.4814119 -0.5965965 -0.707114 -0.6606166 -0.3420158 -0.38160583
-0.3894351 -0.40789512 -0.43768033 -0.44585946 -0.10921342 -0.4966659 -0.6746677 -0.5656546
-0.67454135 -0.59259564 -0.5991005 -0.28790808 -0.45863253 -0.4882053 -0.050352693 0.0045434777
-0.03585905 -0.08437736 -0.41802087 0.17968747 -0.36218646 -0.68510634 -0.56748223 -0.599181
-0.28751594 -0.20207879 -0.5830357 0.14355782 -0.5583546 -0.64616746 -0.59627724 -0.6557284

lstm2.weight_ih_l0 f4 [256, 128]
00000000: a35d 9fbe 220e 41bd 9ae5 f53e ed4c 66be
00000010: 7955 a93e ba71 96bd e178 c0be bed0 513e
00000020: b067 ea3d b14d d13e b631 4e3e 9a3a 20be
00000030: 9f32 133f adbc 83be 96c4 9a3e 3fcf 07bc
00000040: ed89 7a3e efa2 ed3d f97b 913e 5fe3 e0bd
00000050: eebb dc3e 9fde d0bd 178f b2be 21ee e0bd
00000060: a9db 873e ccf6 673e 920a 8e3e 4660 17be
00000070: a83b ea3d e704 04be 9f32 983d f13a 14bd
00000080: 8f68 a1be 4686 33bf 3005 973c 0265 293e
00000090: e7f0 59be 221d cf3e a9b9 dbbd 6641 b2bd
000000a0: 7e86 4fbe 2a7f 34be dddb 9dbe a77c f1bd
000000b0: d865 2d3e d736 433d 853e 1abe 4e52 183d
000000c0: 832b 8e3e 15f9 36bf c372 323f fffc 22bd
000000d0: 610e c73e f50a a2be 1948 1a3e 12e9 843d
000000e0: 14ab 5f3e 168d 85bd 8136 9f3d ce9c 58bb
000000f0: 7235 423e 51dc 0dbd a8fb 0fbf 2f79 c9bc
00000100: 5540 fbbd 09fa 25be 16c7 783e 3f51 8e3d
00000110: ddd7 003e da40 293d 825b 39be 5853 443e
00000120: 6dad 3c3e ec08 5abe caa2 41bf 11a6 f7be
00000130: a181 2dbd 1736 53be 16b3 543e dfd6 4f3e
00000140: b818 e33e aa87 8a3e 4116 0c3d 5509 953d
00000150: ab86 0cbe a328 353d a41d 3ebe 4cb5 853d
00000160: d808 3dbd e8bc a5bd 09cb 863e 9570 903e
00000170: b907 143d d600 2e3f 83cd 483e b19e d2be
00000180: d215 04be 5b0f 123f 67af d6be 311e 573e
00000190: af94 35be e108 2f3c 2448 af3e cf60 8cbe
000001a0: e436 92be daf2 7ebe a00e 37bd f8ff 14be
000001b0: 18cd 58bd 2b5a 313f aea2 90bc 132c 063d
000001c0: 8f08 c2be 8c88 56be 9ac7 0c3e d838 013e
000001d0: 460e 5f3d 673e 9d3e fdf5 d9be c74d 96be
000001e0: 2aff 16bf c5d8 89be f051 b7be 7415 2fbe
000001f0: 8f41 bcbc 36a7 c9bd f7a0 c53e 3902 8b3c
00000200: 0221 0cbc a0c7 d9bb e7cd 833b cfcc 23be
00000210: 74c7 4f3e 36d1 083e 6fee b7bd 21e5 793d
00000220: da24 0cbd 2ffb 243e b6df 5a3e a9c0 e2bd
00000230: c0b0 503e f6bf e2bd 3eb6 803e c4a4 b23d
00000240: 458e a53c 30fd fcbd 44c4 723e feff babd
00000250: 7a42 3f3e 2f7b 1abd 3422 153d e8ca 90bb
00000260: 894e 2dbd 6391 adbd cd91 89bd a547 4f3d
00000270: 1e68 873e c6a7 45be f4ea 82bd 9af8 5f3e
00000280: f28c eebc cce4 503c 2852 803d bac1 c03d
00000290: 9aad b9be f14c b03c bff1 7abe 5867 15bd
000002a0: a762 13bb 1adc d3bd 7b5f bdbd 1f72 903d
000002b0: 1b0b 913d cfa7 503d dd81 383e 036c f3bd
000002c0: 99a1 adbb 8b58 53be 0640 9f3d e861 bd3c
000002d0: bcb0 a23d a623 b1bc bc74 f9bc 3a41 153e
000002e0: aee3 4ebd ac22 143f c706 ab3e 7430 a0bd
000002f0: 5e03 413e 4765 41be 5ef4 0abe 0be7 85be
00000300: 74f0 66be 0ab8 febd da73 213e 9a58 913e
00000310: f2d3 1bbe ebc0 4c3e cdaf 7fbd 3d89 853e
00000320: f23b be3e ac5f 403e dd91 9ebe dbd7 8abd
00000330: 87d1 593d 0029 433d 30ca f3bd c162 123e
00000340: eccf 783e 514f 1abe c9aa 8fbe 5fcf 253e
00000350: 532c c63e 4eea 06be 832a d03d fdb8 9a3b
00000360: 5513 d5bd 9121 7ebe a14a 533d e31c 2bbe
00000370: bf00 a63e f7d0 00bd 1041 273e 01ec 84be
00000380: 2ee2 8dbe 9b31 333e ee0e 7dbe c16e 89be
00000390: 8d6c 203e 2e53 f83c 0cd2 263e c8aa 223d
000003a0: 65e9 a5bd a95d b7be 7504 413e 5922 eabd
000003b0: 9b04 2d3d 2d90 943d 1918 a1be 0579 38bd
000003c0: 114a a6be c01d 89bd 1097 1a3e 24a2 25be
000003d0: 70d3 153e 0b23 94be 1f03 853d 30f1 e7bd
000003e0: e714 47be 3fe8 22be f093 aa3b efda fdbd
000003f0: 5d8b 3a3e 2be6 c1bd ee3c 68bc d04c 90bd
-0.31126127 -0.04713262 0.48026735 -0.22490282 0.33073023 -0.0734591 -0.37592223 0.20489785
0.11445558 0.40879586 0.2013615 -0.15647355 0.57499117 -0.25729886 0.30228108 -0.008289157
0.24466677 0.11603343 0.28414896 -0.109808676 0.4311213 -0.101987116 -0.34874794 -0.109829195
0.26534775 0.2265274 0.2774244 -0.14782819 0.1143716 -0.12892495 0.0743153 -0.036189023
-0.31525084 -0.7012676 0.01843509 0.16542438 -0.21283303 0.40451914 -0.10728771 -0.0870388
-0.20266148 -0.17626634 -0.30831805 -0.11791354 0.16933382 0.04765972 -0.15062912 0.037187867
0.27767572 -0.7147382 0.6970636 -0.039792057 0.38878158 -0.31648985 0.15066566 0.06489767
0.21842605 -0.06521051 0.07774068 -0.0033052447 0.189657 -0.03463394 -0.5624337 -0.024593918
-0.1226813 -0.16208662 0.24294695 0.0694909 0.12582345 0.041321613 -0.18101314 0.19172418
0.18425532 -0.21292466 -0.7563902 -0.48368886 -0.042359952 -0.20626102 0.20771441 0.2029681
0.44354796 0.27056628 0.03420091 0.072771706 -0.13723247 0.044228207 -0.18565995 0.0652872
-0.046151012 -0.08092672 0.2632678 0.28210893 0.036140177 0.67970026 0.19609646 -0.41136697
-0.12898949 0.5705468 -0.41930696 0.21007611 -0.177325 0.010683269 0.34234726 -0.2741761
-0.28557503 -0.24897328 -0.04469168 -0.1455077 -0.052929968 0.6927821 -0.017655697 0.032756876
-0.37897155 -0.20950526 0.13748017 0.1261934 0.05445697 0.30711672 -0.42570487 -0.29356214
-0.589831 -0.26923195 -0.358047 -0.17098027 -0.02298048 -0.09846346 0.3859937 0.016968833
-0.008552792 -0.0066461116 0.004022348 -0.15996097 0.20290929 0.13361058 -0.089810245 0.06100953
-0.034214832 0.16111444 0.21374401 -0.11071903 0.20379925 -0.1107177 0.2513904 0.08722833
0.020209441 -0.12352979 0.23707682 -0.09130858 0.18677703 -0.037715133 0.03640957 -0.0044187196
-0.042311225 -0.08474996 -0.067172624 0.050605435 0.26446623 -0.19302282 -0.0639247 0.21872178
-0.029119942 0.012749862 0.0626567 0.094119504 -0.3626526 0.021521064 -0.24506281 -0.03647551
-0.0022489221 -0.103447154 -0.09246727 0.07053017 0.07082196 0.050941285 0.18018289 -0.11885836
-0.005298805 -0.20639245 0.077758834 0.023117974 0.07943866 -0.021623444 -0.030451171 0.14575663
-0.0505101 0.57865405 0.33403608 -0.07821742 0.1884894 -0.1888629 -0.13569781 -0.26152834
-0.22552663 -0.124374464 0.1576685 0.2838791 -0.1521757 0.19995467 -0.062423516 0.26081267
0.3715511 0.18786496 -0.3097066 -0.067794524 0.053178336 0.047646523 -0.119037986 0.14295484
0.24298066 -0.1506932 -0.28059986 0.16192387 0.38705692 -0.13175318 0.101643585 0.0047217594
-0.10404078 -0.24817492 0.051584844 -0.16710238 0.32422444 -0.031449284 0.16333413 -0.25961307
-0.27711624 0.17499392 -0.24712726 -0.2684231 0.15666409 0.0303131 0.16291064 0.03971365
-0.08101157 -0.35813645 0.18849356 -0.114323325 0.04224072 0.07254062 -0.31463698 -0.04503729
-0.32478383 -0.066951275 0.15096688 -0.16175133 0.14631438 -0.28932986 0.06494736 -0.113253
-0.19441567 -0.15908907 0.005205624 -0.12395274 0.18217225 -0.09467729 -0.014174683 -0.07045901

lstm2.weight_hh_l0 f4 [256, 64]
00000000: 8330 8a3e 21f9 ac3e 185f 593e eb92 453d
00000010: 2dee 66be 38b8 863e 8917 213e 15d3 7cbe
00000020: 9933 a5be 13f6 fabd faef d5be 9bcf 68bd
00000030: d9a1 d1bd 990f d9be 4245 a73e b2d9 623e
00000040: f2e8 0b3f df39 733e fbd3 a53e 965a aebd
00000050: ca84 73be 8b1a 1fbd 0bad 003e a26b 13be
00000060: 3e73 3dbf cda4 f13e 0845 70bc 61cc d73d
00000070: 3c81 45be 5677 63bd 7bde 88be 4903 5ebe
00000080: 4a3e 8dbe 9d07 9b3d 89b5 813e 3135 803e
00000090: 585c acbe 8b3f 91be c798 403d 66fb 8ebe
000000a0: 1c7b 773e bc4e 053e 85f2 74be 7eca 933c
000000b0: 6f5d 893d 5e14 92bd b8c2 b43e 3c4a 5f3d
000000c0: 7990 4c3e bafc 8fbe de4f bbbe f9e5 a5be
000000d0: a27b 23bd c27b 503c 51b4 d3bc eea4 8fbe
000000e0: 1e80 8f3e 45e6 00bf 3e7b 2e3e 536b dd3d
000000f0: 400d 61be 2feb bb3e 7c7f 9d3e 1586 8ebd
00000100: 5f29 833e 7c07 a83d 8b72 313d f1c9 47ba
00000110: 88ed 55bd 681c fabc 99d4 e3bc b4c9 bcbd
00000120: 9ff6 233e 6253 473c af87 293d 0d60 c9bd
00000130: f389 0a3d c693 41be 34b8 b63d 3e7e 7d3e
00000140: a1cb 913e 4f21 eb3d f87b c43d e0e9 30be
00000150: 7eb9 bbbe befd 003e 3626 f03d 6378 cebd
00000160: e700 ddbe fdb2 8a3e 965b 773b 8018 41bd
00000170: dcc0 28be 5784 cd3c 70cf 81bc 24ed 8c3e
00000180: 9749 6fbe a6b9 5ebe 2904 473d 37a1 883b
00000190: a6dd afbe 0c80 f9bd 8b10 d8bd 729d 363e
000001a0: 63fe 203e 92c5 cf3c a4f0 42be 9c19 563e
000001b0: bd30 2fbe 1cb2 05bd 881c d63d 6433 173e
000001c0: fa76 43be 78de c4bd 7730 5fbe fc7a 0dbe
000001d0: 950e d2bd b5fe 9bbd 62b3 34be e20d 2fbe
000001e0: 5ad8 673e fac5 ecbd ef83 553e 0cff 853d
000001f0: 3d16 133e 609b 5cbd 641c 1cbe 0ba7 ccbd
00000200: df45 00be e759 b1bd fb30 443e 81ba 81be
00000210: 2edd 7fbc a104 2c3e 46c0 65be 507b 4cbe
00000220: 8866 bd3e 841b 853b e095 c13c 9af8 0cbd
00000230: ee78 38be 73cb 47be 7a51 a33c ebd6 c43b
00000240: 91e2 873d 3450 a73d 84f9 4d3e 7913 133e
00000250: cb49 90bd bacc cfbc f448 99bd ae07 e3bd
00000260: b6e3 4fbd 2cc0 853e b790 2d3f 7623 0d3e
00000270: b4c9 4ebe a13e 33be 8b8b 37bc 1f37 6e3d
00000280: be57 d9bc 62a4 c33e 6e54 8e3d 3d83 b1bd
00000290: ce82 093e 0395 833d e3ba afbd 40db cc3d
000002a0: 22e8 a43d 8bbf 9fbd 02e3 05be 3369 123b
000002b0: cdb4 523e 54db a2bc f3a4 d73d 07de c93d
000002c0: 14fe 1c3e a389 63be 9c4d 4cbc c65e 59be
000002d0: 06e0 343e f6e0 1b3d 946b 2b3e a44c 84be
000002e0: 941a 2dbe b260 79be b978 803e 3103 f53d
000002f0: 8c6e d63d 751c 2b3e 5e0f 463e ad15 43be
00000300: 517d 4b3e 819f 8fbd ed63 04be b5f3 b53d
00000310: f482 f1bd f9e7 603d 7643 d73d d690 8f3e
00000320: c6ca 643b 889f 28be 4b16 9a3c b3da 00bb
00000330: 66de a4be 0443 04be 2736 ee3e 7985 f83c
00000340: 3d58 b73e 8276 433e facb 7e3c 7a2c c33e
00000350: e1ef 623e ea8c edbe f082 51be e169 5abf
00000360: 133c db3d e0c8 6e3e 9574 c83e 19f1 da3e
00000370: 50e2 1f3e e63d 833e 21bf d1bd b90c 6c3e
00000380: 0bfe 3fbe 3a31 163f 85fd 1b3e 76f4 4f3e
00000390: b81f 343e 07cf 21bd 7eed 9fbc 0cd4 ffbd
000003a0: 8414 173e b6bb 67be 8498 31be 490c 203d
000003b0: 4f34 1fbd 39d0 063d fe48 3e3e 38ef 073e
000003c0: d331 d63e 305b c3bd a019 e8bd 4f3f dabe
000003d0: 72ca 5fbd 1f87 47be f08d 2d3d 1ac6 4ebd
000003e0: e60b 7abe dc74 cabd 5fc9 19be d701 863e
000003f0: 91ce ecbd bbb9 e3be 0253 8d3e 8f20 83be
0.26990137 0.3378382 0.21227682 0.048235815 -0.22551794 0.26312423 0.15731634 -0.24689896
-0.32265928 -0.12253966 -0.4178465 -0.056838613 -0.10235948 -0.42394713 0.32670027 0.22153357
0.5465232 0.23752545 0.3238829 -0.08513372 -0.23781124 -0.038843673 0.1256601 -0.14396527
-0.7400397 0.47196046 -0.014664896 0.10537029 -0.1928758 -0.05553373 -0.2673224 -0.2168094
-0.27586585 0.075698115 0.25333813 0.25040582 -0.33664203 -0.28368792 0.0470207 -0.27926177
0.24168056 0.13018316 -0.23920639 0.018040892 0.06707274 -0.07132791 0.3530481 0.054514155
0.19976987 -0.28122503 -0.3658437 -0.32402018 -0.039912827 0.012724819 -0.025842818 -0.2805552
0.28027433 -0.50351363 0.170392 0.10811486 -0.2197771 0.36702868 0.30761325 -0.06959168
0.256175 0.082045525 0.043322127 -0.0007621339 -0.05222848 -0.030531123 -0.027811335 -0.09218159
0.16012047 0.012165876 0.041389164 -0.09832773 0.033822965 -0.18904027 0.08921853 0.24755189
0.2847567 0.114809625 0.09593958 -0.17276716 -0.36664957 0.12596795 0.11726038 -0.10081556
-0.4316475 0.27089682 0.0037743798 -0.047142506 -0.1647982 0.025087519 -0.015845984 0.27524674
-0.23367916 -0.21750507 0.04858795 0.004169609 -0.34348792 -0.12182626 -0.1055003 0.17833498
0.15722041 0.025362764 -0.1903711 0.20908207 -0.17108436 -0.03264056 0.10454661 0.14765698
-0.19088355 -0.09612745 -0.21795832 -0.13816446 -0.102566876 -0.07616941 -0.17646554 -0.1709514
0.22641125 -0.115611985 0.2085111 0.06542787 0.14363952 -0.053859115 -0.15245205 -0.099927984
-0.12526654 -0.08659726 0.1915931 -0.25337604 -0.015616698 0.16798641 -0.22436628 -0.19968915
0.36992288 0.004062118 0.023631036 -0.034416772 -0.18014881 -0.19511203 0.019936312 0.0060070655
0.06635011 0.081695944 0.20114714 0.14362897 -0.07045325 -0.025366176 -0.07484618 -0.11085449
-0.05075427 0.26123178 0.6779894 0.13783059 -0.20194131 -0.1750436 -0.011202703 0.058158036
-0.026531097 0.38211352 0.069496974 -0.0866761 0.13428804 0.06424906 -0.08580568 0.10002756
0.08052088 -0.07800206 -0.13074878 0.0022340536 0.20576783 -0.019879974 0.105295084 0.098568015
0.15331298 -0.22220473 -0.012469675 -0.2122756 0.17663583 0.038056336 0.16740257 -0.25839722
-0.1690467 -0.24353293 0.25092104 0.11963499 0.10470304 0.16710074 0.193418 -0.19051237
0.19872023 -0.07012845 -0.12928744 0.08884374 -0.117925555 0.054908726 0.10510914 0.2804019
0.0034910901 -0.16467106 0.018809458 -0.0019661605 -0.32200927 -0.1291619 0.4652569 0.030337082
0.35809508 0.19088176 0.0155515615 0.3811987 0.22161819 -0.4639657 -0.20460105 -0.8531781
0.107048176 0.23318815 0.39151445 0.42762068 0.15613675 0.25633162 -0.10241533 0.23051728
-0.18749253 0.58668864 0.15233429 0.20308098 0.17590225 -0.039504077 -0.019522425 -0.124916166
0.1475392 -0.226302 -0.17343336 0.039074216 -0.038868245 0.03291342 0.18582532 0.13274848
0.41834888 -0.09538877 -0.113330126 -0.42626426 -0.054636426 -0.19485138 0.04237169 -0.050481893
-0.24418601 -0.098855704 -0.15018223 0.2617328 -0.11562837 -0.4447764 0.27602392 -0.25610778

lstm2.bias_ih_l0 f4 [256]
00000000: 8b85 aabe 90b4 b2be 1932 ddbe f370 9ebe
00000010: 8f4c 9bbe 00e8 92bd cc44 bbbe 702b d2be
00000020: 3d5f dbbe 8c58 c7be 160d 9cbe 6fba acbe
00000030: 2522 b0be 6e82 40be 3dcc b4be cc08 d9be
00000040: f564 c1be 0715 a2be 2eb8 91be 02ac 98be
00000050: ec41 b5be a03c 94be ec57 bbbe 7209 d8bc
00000060: df82 26be 7329 c2be 8675 cebd dd3a ccbe
00000070: 4878 d3be 1c66 e9be a3c2 97be 24ed b3be
00000080: e07b b7be e326 10be 82df b8be 1413 afbd
00000090: 60ed b0be e411 6fbe 79f1 9dbe a11e 81be
000000a0: b141 c7be af06 c3be f0c9 8abe 5ff6 a8be
000000b0: 4b5f 99be fdad dfbe 7851 96be 7ca9 cdbe
000000c0: 5575 93be 7fe9 58be 8e2f 04be 3726 7ebe
000000d0: ef4c 83be 9575 c4be c4da a7be b7e0 c5be
000000e0: 0613 a0be 5d23 d6be a094 c0be 39de 7cbe
000000f0: 1ca4 0cbe bcb5 66be 0f32 a7bd 7f52 a8be
00000100: f88e 92be 67c9 24bd 238b 01bf fd44 d7be
00000110: b568 c4be 6c57 d5be c687 9bbe ad2c e7be
00000120: 26b1 c0be 9a5c 9bbe 00f5 26be 5da3 08bf
00000130: 7ebb c1be cf7b f9be c237 b3be 25d7 b1be
00000140: 4d3c 90be 83b5 c1be 506a d9be e003 aabe
00000150: 75d2 18be 99e9 ecbe 04b1 90be 0738 89be
00000160: e79e 9cbe 8e21 e3be cb86 1bbf 9ff0 a5be
00000170: 263b 03bf 8b53 ddbe 2da8 bdbe a68c 7a3e
00000180: 5af5 99be 4e71 febe 4264 c8be 9302 1bbf
00000190: b7f0 92be a1e9 fabe 4d57 bcbe 705e 60be
000001a0: 46d6 c7be 91b4 dfbe 869c 0bbf 9566 1cbe
000001b0: ab2a cebe 7b84 92be 4a88 ddbe 98bc 43be
000001c0: 0124 c2be 1b24 e8be f997 b7be c409 1fbf
000001d0: e1c2 7cbe 860d b5be 90cf cebe d5b8 bdbe
000001e0: 26eb debe 936d b9be 27c8 7bbe bc77 0bbf
000001f0: bb4c 07bf fe20 bfbe 2ead 24bf 2e68 243e
00000200: bdd4 d13d bc0e 1c3c 6238 fdbc e47c 773d
00000210: 950e babb c1df a23c f673 a83d 22fd 11bd
00000220: 6952 e3bd 6e79 b6bd 34c3 d1bc f373 8e3d
00000230: 7feb 0bbd 5f45 92bc e34f 61bc 22e7 b4b9
00000240: 9daf 64bc e885 c43c 6385 c93c aaa8 eebd
00000250: 4644 06bd 2126 19bd 4b2d 693c e6c0 fa3d
00000260: aff2 13be 30f0 0b3d 0dc6 88bc 5bb6 423b
00000270: a0a2 9ebc 6c15 a0ba ec77 80bd efe4 063a
00000280: 0b58 1c3c f8f0 813c 955b 993d 3354 6abb
00000290: 2e5a 94bd 751e d8bc 5ae8 ff3c 369a 05bd
000002a0: b4ce 10bc 2a33 2bbb bf8b 2abd 7361 71bc
000002b0: 7375 9d3c 478c 203d c5ed 013e e559 6abd
000002c0: 3df5 423c 2460 ffbc a8bb e23a 7163 353d
000002d0: aa86 efbd 93ad 6cbd a637 dcbb 8e34 213c
000002e0: ca07 c83c 6840 2a3d 40e9 7d3a fe88 0d3d
000002f0: da11 dabc 716e 3b3d 1358 9c3c d2e7 013e
00000300: 32bc aabe 37a3 b4be c5f2 eabe 7ebf 98be
00000310: 6279 9dbe 6b9e c6bd ae08 bbbe 71a0 d1be
00000320: 515c debe bae6 dabe f6fd 97be 9457 bfbe
00000330: 5bda adbe 98c9 71be 87c5 b8be abec d8be
00000340: b8ca a7be 0fbd 9dbe c0bd 8cbe a53f 9fbe
00000350: 9102 babe 3d26 8cbe 6ad6 afbe 8b7e b9bd
00000360: bb40 56be eeac b8be 4462 02be 0ee8 d2be
00000370: 7377 d9be 3182 e3be bf1c 98be bad3 a6be
00000380: d558 babe ef27 04be 9707 b9be 0c02 a5bd
00000390: 4b18 b1be d73c 5cbe 3941 97be 6fd7 6bbe
000003a0: cbef babe 5ac9 c7be b46a 8abe 6fd7 a9be
000003b0: f27c 9dbe 5f8c e2be 8dec 9dbe 9385 cdbe
000003c0: be36 91be 7912 68be d564 16be f63c 82be
000003d0: 5dcc abbe 9f05 bebe 5a98 a6be fa65 c9be
000003e0: c9dd b4be 6a30 cdbe ac83 b9be 58e6 85be
000003f0: 5a05 13be d2a8 d0be c7a5 a1bd 5509 b8be
-0.3330501 -0.34903383 -0.43202284 -0.30945548 -0.30331847 -0.07173157 -0.36575925 -0.41048765
-0.428461 -0.38934743 -0.30478734 -0.33735988 -0.3440105 -0.18799755 -0.3531207 -0.42389524
-0.37772337 -0.31656668 -0.2846083 -0.29818732 -0.35401857 -0.28952503 -0.36590517 -0.026371691
-0.16260861 -0.37922248 -0.100810096 -0.3988866 -0.41302705 -0.45585716 -0.29640684 -0.3514186
-0.35836697 -0.14077334 -0.36108023 -0.08548561 -0.34556103 -0.23346668 -0.30848292 -0.2521868
-0.38917306 -0.38091037 -0.2710719 -0.33000466 -0.29955515 -0.4368743 -0.2935903 -0.4016837
-0.28800455 -0.21182822 -0.12908766 -0.24819265 -0.25644633 -0.38370958 -0.32784092 -0.38648006
-0.31264514 -0.41823855 -0.37613392 -0.24694146 -0.13734478 -0.22530264 -0.08163845 -0.3287544
-0.28624701 -0.040231135 -0.5060293 -0.4204482 -0.38361135 -0.4166826 -0.30377024 -0.45151272
-0.37635154 -0.30344087 -0.16304398 -0.5337427 -0.37838358 -0.4872727 -0.35003477 -0.34734455
-0.28171006 -0.37833795 -0.42463923 -0.3320608 -0.14924033 -0.4627197 -0.28260052 -0.26800558
-0.30589983 -0.44361538 -0.6075255 -0.32410142 -0.5126213 -0.432278 -0.3704237 0.24467716
-0.3007 -0.4969582 -0.3913899 -0.605508 -0.28699276 -0.4900637 -0.36785355 -0.21911025
-0.39030665 -0.4369245 -0.5453571 -0.15273507 -0.40266928 -0.286167 -0.43268043 -0.19114912
-0.37918094 -0.45340046 -0.35858133 -0.62124276 -0.24683715 -0.3536188 -0.40392733 -0.37055078
-0.4353878 -0.3621641 -0.24588071 -0.54479575 -0.52851456 -0.3732986 -0.6432675 0.16055366
0.10245655 0.009524997 -0.030910674 0.06042184 -0.005678008 0.019882085 0.08225243 -0.035641797
-0.11099703 -0.089098796 -0.025605775 0.06955709 -0.034160133 -0.017855344 -0.013751957 -0.00034504483
-0.013957885 0.023989633 0.024599737 -0.11653264 -0.032779954 -0.03738988 0.01423199 0.12243824
-0.14448045 0.034164608 -0.016696 0.0029710743 -0.019364655 -0.0012213415 -0.06272873 0.0005145808
0.009542475 0.015861973 0.07488171 -0.0035755753 -0.07243763 -0.02638171 0.031238724 -0.03261777
-0.008838344 -0.0026123025 -0.04163718 -0.014732706 0.019221043 0.03919628 0.12688358 -0.057214636
0.01189929 -0.031173773 0.0017298358 0.044284288 -0.11695607 -0.05778272 -0.006720501 0.00983919
0.024417777 0.04156533 0.0009685941 0.034554474 -0.02661984 0.045759622 0.019084966 0.12686089
-0.33346707 -0.35280773 -0.45888343 -0.29833597 -0.3075667 -0.096981846 -0.3653006 -0.4094272
-0.43429807 -0.42754155 -0.29685944 -0.37371504 -0.33955655 -0.23612058 -0.360882 -0.42368063
-0.3277185 -0.30808303 -0.27488518 -0.31103244 -0.36330083 -0.27372923 -0.34343272 -0.09057339
-0.2092313 -0.36069435 -0.12732798 -0.4119267 -0.42473945 -0.44435266 -0.29709432 -0.3258341
-0.36395898 -0.12905858 -0.36138603 -0.08057031 -0.34588847 -0.21507584 -0.29541948 -0.230314
-0.36511073 -0.39020807 -0.27034533 -0.33172175 -0.30759388 -0.4424772 -0.30844536 -0.40140972
-0.28362077 -0.22663297 -0.14686902 -0.25437135 -0.33554354 -0.37113664 -0.3253811 -0.39335614
-0.3532546 -0.40076 -0.3623327 -0.261523 -0.1435751 -0.407538 -0.07892948 -0.3594462

lstm2.bias_hh_l0 f4 [256]
00000000: 8b85 aabe 90b4 b2be 1932 ddbe f370 9ebe
00000010: 8f4c 9bbe 00e8 92bd cc44 bbbe 702b d2be
00000020: 3d5f dbbe 8c58 c7be 160d 9cbe 6fba acbe
00000030: 2522 b0be 6e82 40be 3dcc b4be cc08 d9be
00000040: f564 c1be 0715 a2be 2eb8 91be 02ac 98be
00000050: ec41 b5be a03c 94be ec57 bbbe 7209 d8bc
00000060: df82 26be 7329 c2be 8675 cebd dd3a ccbe
00000070: 4878 d3be 1c66 e9be a3c2 97be 24ed b3be
00000080: e07b b7be e326 10be 82df b8be 1413 afbd
00000090: 60ed b0be e411 6fbe 79f1 9dbe a11e 81be
000000a0: b141 c7be af06 c3be f0c9 8abe 5ff6 a8be
000000b0: 4b5f 99be fdad dfbe 7851 96be 7ca9 cdbe
000000c0: 5575 93be 7fe9 58be 8e2f 04be 3726 7ebe
000000d0: ef4c 83be 9575 c4be c4da a7be b7e0 c5be
000000e0: 0613 a0be 5d23 d6be a094 c0be 39de 7cbe
000000f0: 1ca4 0cbe bcb5 66be 0f32 a7bd 7f52 a8be
00000100: f88e 92be 67c9 24bd 238b 01bf fd44 d7be
00000110: b568 c4be 6c57 d5be c687 9bbe ad2c e7be
00000120: 26b1 c0be 9a5c 9bbe 00f5 26be 5da3 08bf
00000130: 7ebb c1be cf7b f9be c237 b3be 25d7 b1be
00000140: 4d3c 90be 83b5 c1be 506a d9be e003 aabe
00000150: 75d2 18be 99e9 ecbe 04b1 90be 0738 89be
00000160: e79e 9cbe 8e21 e3be cb86 1bbf 9ff0 a5be
00000170: 263b 03bf 8b53 ddbe 2da8 bdbe a68c 7a3e
00000180: 5af5 99be 4e71 febe 4264 c8be 9302 1bbf
00000190: b7f0 92be a1e9 fabe 4d57 bcbe 705e 60be
000001a0: 46d6 c7be 91b4 dfbe 869c 0bbf 9566 1cbe
000001b0: ab2a cebe 7b84 92be 4a88 ddbe 98bc 43be
000001c0: 0124 c2be 1b24 e8be f997 b7be c409 1fbf
000001d0: e1c2 7cbe 860d b5be 90cf cebe d5b8 bdbe
000001e0: 26eb debe 936d b9be 27c8 7bbe bc77 0bbf
000001f0: bb4c 07bf fe20 bfbe 2ead 24bf 2e68 243e
00000200: bdd4 d13d bc0e 1c3c 6238 fdbc e47c 773d
00000210: 950e babb c1df a23c f673 a83d 22fd 11bd
00000220: 6952 e3bd 6e79 b6bd 34c3 d1bc f373 8e3d
00000230: 7feb 0bbd 5f45 92bc e34f 61bc 22e7 b4b9
00000240: 9daf 64bc e885 c43c 6385 c93c aaa8 eebd
00000250: 4644 06bd 2126 19bd 4b2d 693c e6c0 fa3d
00000260: aff2 13be 30f0 0b3d 0dc6 88bc 5bb6 423b
00000270: a0a2 9ebc 6c15 a0ba ec77 80bd efe4 063a
00000280: 0b58 1c3c f8f0 813c 955b 993d 3354 6abb
00000290: 2e5a 94bd 751e d8bc 5ae8 ff3c 369a 05bd
000002a0: b4ce 10bc 2a33 2bbb bf8b 2abd 7361 71bc
000002b0: 7375 9d3c 478c 203d c5ed 013e e559 6abd
000002c0: 3df5 423c 2460 ffbc a8bb e23a 7163 353d
000002d0: aa86 efbd 93ad 6cbd a637 dcbb 8e34 213c
000002e0: ca07 c83c 6840 2a3d 40e9 7d3a fe88 0d3d
000002f0: da11 dabc 716e 3b3d 1358 9c3c d2e7 013e
00000300: 32bc aabe 37a3 b4be c5f2 eabe 7ebf 98be
00000310: 6279 9dbe 6b9e c6bd ae08 bbbe 71a0 d1be
00000320: 515c debe bae6 dabe f6fd 97be 9457 bfbe
00000330: 5bda adbe 98c9 71be 87c5 b8be abec d8be
00000340: b8ca a7be 0fbd 9dbe c0bd 8cbe a53f 9fbe
00000350: 9102 babe 3d26 8cbe 6ad6 afbe 8b7e b9bd
00000360: bb40 56be eeac b8be 4462 02be 0ee8 d2be
00000370: 7377 d9be 3182 e3be bf1c 98be bad3 a6be
00000380: d558 babe ef27 04be 9707 b9be 0c02 a5bd
00000390: 4b18 b1be d73c 5cbe 3941 97be 6fd7 6bbe
000003a0: cbef babe 5ac9 c7be b46a 8abe 6fd7 a9be
000003b0: f27c 9dbe 5f8c e2be 8dec 9dbe 9385 cdbe
000003c0: be36 91be 7912 68be d564 16be f63c 82be
000003d0: 5dcc abbe 9f05 bebe 5a98 a6be fa65 c9be
000003e0: c9dd b4be 6a30 cdbe ac83 b9be 58e6 85be
000003f0: 5a05 13be d2a8 d0be c7a5 a1bd 5509 b8be
-0.3330501 -0.34903383 -0.43202284 -0.30945548 -0.30331847 -0.07173157 -0.36575925 -0.41048765
-0.428461 -0.38934743 -0.30478734 -0.33735988 -0.3440105 -0.18799755 -0.3531207 -0.42389524
-0.37772337 -0.31656668 -0.2846083 -0.29818732 -0.35401857 -0.28952503 -0.36590517 -0.026371691
-0.16260861 -0.37922248 -0.100810096 -0.3988866 -0.41302705 -0.45585716 -0.29640684 -0.3514186
-0.35836697 -0.14077334 -0.36108023 -0.08548561 -0.34556103 -0.23346668 -0.30848292 -0.2521868
-0.38917306 -0.38091037 -0.2710719 -0.33000466 -0.29955515 -0.4368743 -0.2935903 -0.4016837
-0.28800455 -0.21182822 -0.12908766 -0.24819265 -0.25644633 -0.38370958 -0.32784092 -0.38648006
-0.31264514 -0.41823855 -0.37613392 -0.24694146 -0.13734478 -0.22530264 -0.08163845 -0.3287544
-0.28624701 -0.040231135 -0.5060293 -0.4204482 -0.38361135 -0.4166826 -0.30377024 -0.45151272
-0.37635154 -0.30344087 -0.16304398 -0.5337427 -0.37838358 -0.4872727 -0.35003477 -0.34734455
-0.28171006 -0.37833795 -0.42463923 -0.3320608 -0.14924033 -0.4627197 -0.28260052 -0.26800558
-0.30589983 -0.44361538 -0.6075255 -0.32410142 -0.5126213 -0.432278 -0.3704237 0.24467716
-0.3007 -0.4969582 -0.3913899 -0.605508 -0.28699276 -0.4900637 -0.36785355 -0.21911025
-0.39030665 -0.4369245 -0.5453571 -0.15273507 -0.40266928 -0.286167 -0.43268043 -0.19114912
-0.37918094 -0.45340046 -0.35858133 -0.62124276 -0.24683715 -0.3536188 -0.40392733 -0.37055078
-0.4353878 -0.3621641 -0.24588071 -0.54479575 -0.52851456 -0.3732986 -0.6432675 0.16055366
0.10245655 0.009524997 -0.030910674 0.06042184 -0.005678008 0.019882085 0.08225243 -0.035641797
-0.11099703 -0.089098796 -0.025605775 0.06955709 -0.034160133 -0.017855344 -0.013751957 -0.00034504483
-0.013957885 0.023989633 0.024599737 -0.11653264 -0.032779954 -0.03738988 0.01423199 0.12243824
-0.14448045 0.034164608 -0.016696 0.0029710743 -0.019364655 -0.0012213415 -0.06272873 0.0005145808
0.009542475 0.015861973 0.07488171 -0.0035755753 -0.07243763 -0.02638171 0.031238724 -0.03261777
-0.008838344 -0.0026123025 -0.04163718 -0.014732706 0.019221043 0.03919628 0.12688358 -0.057214636
0.01189929 -0.031173773 0.0017298358 0.044284288 -0.11695607 -0.05778272 -0.006720501 0.00983919
0.024417777 0.04156533 0.0009685941 0.034554474 -0.02661984 0.045759622 0.019084966 0.12686089
-0.33346707 -0.35280773 -0.45888343 -0.29833597 -0.3075667 -0.096981846 -0.3653006 -0.4094272
-0.43429807 -0.42754155 -0.29685944 -0.37371504 -0.33955655 -0.23612058 -0.360882 -0.42368063
-0.3277185 -0.30808303 -0.27488518 -0.31103244 -0.36330083 -0.27372923 -0.34343272 -0.09057339
-0.2092313 -0.36069435 -0.12732798 -0.4119267 -0.42473945 -0.44435266 -0.29709432 -0.3258341
-0.36395898 -0.12905858 -0.36138603 -0.08057031 -0.34588847 -0.21507584 -0.29541948 -0.230314
-0.36511073 -0.39020807 -0.27034533 -0.33172175 -0.30759388 -0.4424772 -0.30844536 -0.40140972
-0.28362077 -0.22663297 -0.14686902 -0.25437135 -0.33554354 -0.37113664 -0.3253811 -0.39335614
-0.3532546 -0.40076 -0.3623327 -0.261523 -0.1435751 -0.407538 -0.07892948 -0.3594462
