smartTrash_API/weights_pth/model.pth (torch, 167540 bytes, 5 tensors)

lstm.weight_ih_l0 f4 [400, 1]
000000 03 0b 73 3e 93 c2 ee be 27 99 46 be 87 fc 25 3f
       0.2373467 -0.46632823 -0.1939436 0.6483845
000010 cb 6f 93 3d da 29 79 bd e0 10 88 3e b3 b5 f8 bd
       0.07199057 -0.06083093 0.26575375 -0.121440314
000020 c7 69 9e bd 6e 55 17 3f fa 04 b8 3d 79 4f b0 be
       -0.07735019 0.5911473 0.08985324 -0.34435633
000030 c2 82 61 3e 4d 01 3b bf 34 60 a8 be b3 ef e1 3e
       0.22022536 -0.7304886 -0.32885897 0.44128188
000040 ac a9 b9 3e 9a d0 10 bf d7 e7 cc 3d 2e 2a a5 3e
       0.36262262 -0.565683 0.100051574 0.32258743
000050 ae f2 2d 3f 74 92 dd 3e 1a 08 09 bf 5d 37 a7 3e
       0.67948425 0.43275797 -0.53527987 0.32659426
000060 55 1b 55 3e 39 83 7a be 3a c9 08 bf 3c 39 07 bf
       0.20811208 -0.2446412 -0.5343205 -0.5282171
000070 57 af ca bc 06 f1 ae be fc 26 c6 be 56 86 ee 3c
       -0.024741812 -0.3416826 -0.38701618 0.02911679
000080 ad 8d 84 bd 83 05 19 bf 41 d7 ef 3e 3e b5 0d bf
       -0.06472335 -0.59774035 0.46843913 -0.5535468
000090 86 d9 be 3e ab e5 e7 be ec 09 5e bb 1b 3e 14 bf
       0.37275332 -0.4529241 -0.0033880426 -0.57907265
0000a0 58 52 56 3e 3e e4 11 3e 36 2e 39 be 0e 0e 39 bf
       0.20929849 0.14247224 -0.18084034 -0.7228707
0000b0 57 60 bc 3c a0 ac 12 bf 34 b3 2a 3d ea a3 22 3e
       0.022995157 -0.57294655 0.041674808 0.15882841
0000c0 56 40 57 be 82 81 7b be 2d fe 1f 3e d8 70 11 bf
       -0.21020636 -0.24561122 0.15624304 -0.5681281
0000d0 65 65 a5 3e 05 c4 0e bf d8 5e 64 be 17 eb 07 be
       0.3230392 -0.5576785 -0.22301805 -0.13273273
0000e0 c2 38 44 3e d3 e9 16 bf 7b ce f2 bd c2 f4 28 bf
       0.19162276 -0.5895054 -0.11855789 -0.6599847
0000f0 a8 b6 0d bf 09 b5 d8 bd 6d 87 71 be ac 69 bb 3e
       -0.55356836 -0.10581405 -0.23586817 0.3660406
000100 ba 3c 1c bf f9 29 52 be a7 61 6c 3d 18 41 c3 3e
       -0.6103016 -0.20523824 0.057710316 0.381356
000110 c6 da 24 bf 23 01 21 bf c3 09 df be 18 ed 84 3d
       -0.6439632 -0.6289236 -0.43562135 0.064905345
000120 2b 62 8b 3e 89 06 00 bf da ff 88 bd c5 ea 22 bd
       0.27223334 -0.5000997 -0.06689425 -0.039774675
000130 8f 3a 81 3e a2 21 c3 bd 00 b6 ef be 7c c9 43 3e
       0.2523999 -0.09527899 -0.46818542 0.19119829
000140 b3 73 3b bf fb 31 14 bf 39 1e c9 3e 8b 85 6e 3e
       -0.7322342 -0.57888764 0.3928087 0.2329313
000150 c1 61 f6 3d 5c 29 a8 3c 6a 2b de be 07 cd 12 bf
       0.12030364 0.020527534 -0.43392497 -0.57344097
000160 55 d8 dd 3e 77 6e f2 be b3 9c 39 3f a2 11 67 3e
       0.4332911 -0.47349903 0.7250473 0.2256532
000170 e1 5a c9 be 55 af e2 be e3 49 15 be aa 7f c7 be
       -0.39327148 -0.44274393 -0.14578967 -0.38964587
000180 41 0b b8 be 1f 34 b8 3e c2 07 7c 3e 23 70 38 be
       -0.35946086 0.35977265 0.24612334 -0.18011527
000190 04 64 76 3e 6d 41 62 be e1 08 75 bd 5a b0 ea 3e
       0.2406159 -0.2209527 -0.05982292 0.4583767
0001a0 38 60 07 3e f8 c7 5d 3e d8 bc 60 3e ba 93 92 bd
       0.13220298 0.21658313 0.21947038 -0.07157083
0001b0 ab 0a 80 3e 0f 1a e4 3e 08 fb 73 3e aa ce 70 be
       0.2500814 0.4455113 0.2382623 -0.23516336
0001c0 e0 76 33 3e 8c a5 13 bf 3a d3 b8 bd d1 64 66 3e
       0.17525816 -0.5767448 -0.09024663 0.22499396
0001d0 d4 51 97 3e a2 5e fe be cf fc d6 3d 9c 30 e6 3e
       0.29554617 -0.49681574 0.10497438 0.4495896
0001e0 13 35 d0 3e 27 f9 91 3e 5a fd a1 be 2c f8 fa 3e
       0.40665492 0.285104 -0.31638604 0.49017465
0001f0 9b 33 e6 3d c7 54 2b bd 2e c4 8b bc c6 7a d2 be
       0.11240312 -0.041828897 -0.01706132 -0.41109294
000200 5c 2a 9c 3e 8a 1e 58 bb 43 94 61 be fb 2f 90 3e
       0.30501068 -0.0032977187 -0.22029214 0.28161606
000210 94 94 c1 3d 75 db c1 be 3a 2e dd 3e c5 b5 d0 be
       0.09452167 -0.37862745 0.4319933 -0.4076368
000220 c9 16 1f 3e e0 1d 8a be de 77 82 3d 44 f1 01 be
       0.15536036 -0.26975918 0.06370519 -0.12689692
000230 e1 bd a2 3e b1 71 b9 3e 09 3b 9c 3e 32 6c e7 be
       0.3178549 0.36219552 0.3051379 -0.45199734
000240 d9 aa 58 3e d3 27 b4 be 37 9b 30 3e c5 82 97 3e
       0.21158923 -0.35186633 0.1724671 0.29591957
000250 bb fa 37 3c 56 28 5c bd 9d 70 89 3e 50 ea c0 be
       0.011229212 -0.053749405 0.2684373 -0.37678766
000260 0f f7 30 3e 51 93 e7 be 29 7b 98 bd ba cb 5a bd
       0.17281745 -0.4522958 -0.07445366 -0.053416945
000270 0d 89 ae 3e 14 64 9a be 07 74 39 3d e9 97 03 bf
       0.34088936 -0.3015448 0.045276668 -0.5140367
000280 63 fc ed be 41 ab b7 3c ca 8c 4e 3e 5c c7 71 3e
       -0.46481618 0.022420527 0.20170894 0.23611206
000290 5e be 94 3e 02 86 94 bd ee 50 31 3e 4c 5f c4 3e
       0.2905149 -0.072521225 0.17316028 0.38353956
0002a0 76 09 9f be 90 df 25 be 1f d7 d8 be d8 91 2a 3e
       -0.31061906 -0.16198564 -0.42351624 0.16657197
0002b0 b9 b5 03 3e 8a f8 3d bd d4 9b 40 3e 8d 4b c2 bd
       0.1286229 -0.046379603 0.18809444 -0.094870664
0002c0 5a c8 d3 3d 7f c5 2e 3d 27 e1 84 be b5 fe 98 3e
       0.103409484 0.042668816 -0.25953028 0.29881826
0002d0 79 5a de be 2c ad 4d be e9 2c 04 3f 32 5b 72 3e
       -0.434284 -0.20085591 0.5163103 0.23667601
0002e0 ac 19 67 3e e6 d9 a6 bb 26 32 b2 be 44 3f f0 be
       0.22568387 -0.0050918935 -0.34803885 -0.46923268
0002f0 b8 df 74 3e 49 58 35 be 82 35 05 3f e2 e9 74 3e
       0.23913467 -0.1770946 0.5203477 0.23917344
000300 1a 85 1f be 57 08 bd be 1d 0f c3 3c 41 fc 6c be
       -0.15578118 -0.36920425 0.023810918 -0.23143102
000310 24 67 fb bd f9 4d 00 3f fd 7c 8a 3e 8a d6 20 bd
       -0.12275532 0.50118977 0.27048483 -0.0392671
000320 62 90 f2 3e 91 42 45 3d 95 ab 0d 3e b2 e6 02 3f
       0.4737578 0.048159186 0.13834985 0.51133263
000330 cc b2 ad be 10 98 9c 3e 21 0e 08 bf c2 e4 82 3e
       -0.33925474 0.30584764 -0.5314656 0.25565153
000340 e7 51 83 be 9c fa 1a bf b3 50 bb 3e f5 67 06 be
       -0.25648424 -0.6053865 0.36585006 -0.13125594
000350 35 ab c6 be 09 ff 97 3d 89 ad 86 be 49 0d 01 3f
       -0.38802496 0.07421691 -0.26304272 0.50410897
000360 3b 39 ff be cf bd cb bc c6 9b a2 be 85 3d 08 3f
       -0.4984835 -0.024870781 -0.3175947 0.5321887
000370 97 0a 0c bf 21 65 0a 3f 87 9f b6 3b 6c 32 ed 3e
       -0.5470366 0.5406056 0.0055732164 0.4632753
000380 3d b2 cf be 7a 80 47 3e f9 4e c0 be 31 96 a6 bd
       -0.40565673 0.19482604 -0.3756025 -0.081341155
000390 41 2e b1 3e 6c d8 3e 3e 1c 73 4f 3e f3 41 cd 3e
       0.346056 0.18637246 0.20258754 0.40089378
0003a0 38 c7 a4 3e 32 9b 96 3d da 4d 1a 3f fa ba 64 3d
       0.32183242 0.0735382 0.6027504 0.055842377
0003b0 c3 ab f8 be c2 2d 61 bd ab 35 c9 3e ec 98 cb 3d
       -0.48568544 -0.05497528 0.39298758 0.09941277
0003c0 5a 4e cb 3e 43 e6 d4 3e 5d 6b b8 bd 26 49 31 bd
       0.39708215 0.41581926 -0.09004853 -0.04328265
0003d0 dc d8 9f be ef cd ac bd 8f 9c 8f 3e 91 f8 dd 3e
       -0.31220138 -0.08437716 0.28049132 0.43353704
0003e0 e0 a2 6a be 21 01 74 be 8b d8 01 3f 7c 63 c9 bd
       -0.22913694 -0.23828556 0.50721043 -0.09833428
0003f0 57 b9 e1 be 3d 2a ab bc 6f 33 16 be 97 b7 a1 be
       -0.44086716 -0.020894164 -0.14668058 -0.3158538

lstm.weight_hh_l0 f4 [400, 100]
000000 87 31 19 be 0b a0 1a bd 30 de c5 3d 12 8e 06 3e
       -0.149603 -0.037750285 0.096615195 0.13140133
000010 38 f4 ce bc fb 3c ba 3d df 21 92 3e 67 2f 6e 3d
       -0.025262937 0.09093662 0.28541467 0.058150675
000020 f2 6d cf bd f3 11 6a 3e 49 79 16 bd d2 7a 10 be
       -0.10128392 0.2285841 -0.03673676 -0.14109352
000030 4f 2e 7d 3d 6b 2e c8 bd 06 f8 3c be f8 53 c8 3d
       0.06181174 -0.097744785 -0.18453988 0.09781641
000040 ee 0e c8 bd b9 58 26 be 38 1d 77 be 4d 3a 0a 3d
       -0.097684726 -0.16244783 -0.2413224 0.033747006
000050 fa 39 8b bd 2b b8 8f bc b7 e4 c4 bd 04 15 4b 3d
       -0.067981675 -0.017543873 -0.096139364 0.04958059
000060 63 d1 8f 3d 7f 25 0b 3d fc 91 ab 3e a1 f4 75 be
       0.07022359 0.033971306 0.33509815 -0.240191
000070 c0 a0 42 3e 67 72 af 3e cc d3 a7 3e e7 d3 07 3e
       0.19006634 0.3426697 0.32778776 0.13264428
000080 5d 55 26 3d 2b 6d 8d 3e 5a 52 57 be fc a3 b1 bd
       0.040608753 0.2762235 -0.21027508 -0.08673856
000090 06 8e 5f be 86 2b b2 3d 52 5b 19 3e 13 ca 89 be
       -0.21831521 0.08699708 0.14976242 -0.26911983
0000a0 e0 ad 5c 3e d1 2d 5c 3c 74 5b aa 3e 8e ad 50 be
       0.21550703 0.013438658 0.33272898 -0.20378706
0000b0 8c f2 bc 3d f1 6a 77 be 68 e4 3d be 07 65 e2 3d
       0.0922595 -0.24161889 -0.18544161 0.11054426
0000c0 2b 0c 42 be 64 6b 79 be 19 5b d5 be 1e 87 5d be
       -0.18949954 -0.24357373 -0.41671064 -0.21633574
0000d0 43 bc d1 bd 3c c4 00 bc 8d 60 dd 3b 78 bf 17 bc
       -0.10240986 -0.007859286 0.0067558945 -0.009261958
0000e0 29 86 87 bd ee 02 30 3e 04 24 63 3e c6 17 b6 bb
       -0.06617386 0.17188618 0.22181708 -0.0055570332
0000f0 d4 bf 81 3d 02 76 27 3d 36 97 cd be d6 e0 05 3e
       0.063354164 0.040884025 -0.40154427 0.1307405
000100 e4 2e a3 be 21 10 ba be 04 d9 7c bd 01 77 26 be
       -0.31871712 -0.3634043 -0.0617304 -0.16256334
000110 c6 d7 c5 3e 7b 9c 54 be 5b 4d ce bd 20 bb 0c be
       0.38641185 -0.20762818 -0.10073348 -0.13743258
000120 28 65 ba bd 98 7f d9 be 86 c3 7e be ed b6 55 be
       -0.09101325 -0.4248016 -0.24879274 -0.20870562
000130 b7 0c 32 bd d4 e6 ad bc ac e2 42 be f2 a2 86 3d
       -0.043469157 -0.021228231 -0.19031781 0.06574048
000140 66 44 93 3d 98 68 e3 be 93 6f c7 bb b5 6d 17 3e
       0.0719078 -0.44415736 -0.0060862987 0.14787944
000150 de d0 17 be ad bb ef 3d db 98 07 be 4b 85 81 bd
       -0.1482577 0.11705718 -0.13241903 -0.06324252
000160 c5 7d 20 3e d5 1f 98 be 8e d9 c5 bd 7f a5 0f be
       0.15672977 -0.29711786 -0.09660636 -0.14027975
000170 9f 30 19 3e 8f db 21 3e 6e b4 a0 bd 71 13 6e be
       0.14959954 0.15806411 -0.07846914 -0.23249604
000180 c2 7f 58 be bd 9e 25 3c dd c2 13 3b 71 02 94 3e
       -0.21142486 0.010108647 0.0022546567 0.28908113
000190 69 f1 e1 be cc 3d 84 3e 8a 67 68 be c1 8c 1e bf
       -0.44129494 0.25828397 -0.22695747 -0.61933523
0001a0 96 05 13 3e 89 28 07 be a3 a5 9a 3e d7 e8 18 be
       0.143576 -0.13199057 0.30204496 -0.14932571
0001b0 1b 4a 2a 3e 59 1c 00 3f 0b df 3d be fb e9 3b 3e
       0.16629831 0.50043255 -0.18542115 0.18350975
0001c0 13 f9 aa 3e 88 13 10 ba 22 cd 19 3e a3 47 94 be
       0.33393154 -0.00054960744 0.15019658 -0.28960904
0001d0 1c fb 44 3e ac b3 fb 3c 5d 37 a1 3e a5 d0 aa be
       0.19236416 0.030725323 0.3148755 -0.33362308
0001e0 61 a6 29 3f 92 4c ad be c0 90 ce bd e2 ff 25 be
       0.662695 -0.3384748 -0.100862026 -0.16210893
0001f0 ec cc 79 3e 7e fd 5c bd 23 10 80 3e 91 7c 87 bd
       0.24394578 -0.053952686 0.2501231 -0.06615556
000200 21 df 0e be a7 d5 7d be 3c ce 35 be 7c 37 89 bd
       -0.13952304 -0.24788533 -0.17754453 -0.06700036
000210 4b b3 d1 bd 97 63 20 3e 44 1d 0d bf e9 2a 3a bd
       -0.102392755 0.1566299 -0.5512278 -0.04545108
000220 a5 94 d1 3e 16 79 17 be e7 1e 1c be 75 6f bd 3e
       0.4093372 -0.14792284 -0.15246163 0.36999097
000230 f6 23 61 be db a8 a9 be 85 b3 34 3e e5 a1 b3 bc
       -0.21986374 -0.3313664 0.17646606 -0.021927783
000240 09 d1 49 3e 9f 0e 0f bc 46 61 f5 be 47 ff 52 be
       0.19708647 -0.008731513 -0.47925776 -0.20605193
000250 ec a0 99 bd 07 b1 54 3e 5e 2d e9 be 46 d6 22 3e
       -0.075013965 0.20770656 -0.45542425 0.15902051
000260 8c b0 b9 3e 9f fd b5 3d 5d 35 51 3e b5 0a 6a bd
       0.36267507 0.08886265 0.20430513 -0.057139117
000270 04 85 42 3e b6 3f 05 3d 63 15 01 be 81 b8 a6 bc
       0.18996054 0.032531463 -0.12605815 -0.02035165
000280 d3 a3 af bc 13 d5 d3 bd 3c ec 53 ba 43 29 c4 be
       -0.021440422 -0.10343375 -0.0008084213 -0.3831273
000290 1d 9e cb 3d 3e 0e b2 3e 9d 03 0c 3e e4 a0 87 3e
       0.09942267 0.3477649 0.13673253 0.26489937
0002a0 2d 55 00 3d 52 cf 5c 3e f9 38 a6 3d 85 6f 84 3e
       0.03133123 0.21563461 0.081163354 0.25866333
0002b0 67 e7 b8 3e 72 4f b0 bd 1a 55 70 3e d5 14 58 3e
       0.36114046 -0.08608903 0.23469964 0.21101697
0002c0 44 d9 ba be bb d8 22 3e f6 cf 28 bd c5 04 b1 be
       -0.36493886 0.15902989 -0.041213952 -0.3457395
0002d0 c5 e7 84 bd 48 12 8f bd da 52 80 be 94 65 ab 3e
       -0.06489519 -0.06985909 -0.2506321 0.33475935
0002e0 a0 b1 55 3e d9 3b 24 3e 92 72 e5 3b 05 16 6a 3d
       0.2086854 0.16038455 0.0070021832 0.057149906
0002f0 a0 76 cf 3e 4f 04 0e 3e 40 26 1f bf fa 7d 81 3e
       0.4052019 0.13868831 -0.6216774 0.25291425
000300 05 4e 07 be c8 b1 c5 bd 80 be 1c 3e f8 35 11 3e
       -0.13213356 -0.0965305 0.15307045 0.14180744
000310 a1 d7 25 3d 08 06 91 3e f4 8a 03 be 4b c7 a9 bc
       0.040488843 0.28324914 -0.12845975 -0.020724913
000320 fa 38 dd be 8c 48 e8 3d 41 f6 1a be 6a 56 b0 be
       -0.43207532 0.11341962 -0.15133001 -0.3444093
000330 af ad b2 3d 81 ba 78 be 89 50 da 3e f2 92 87 bd
       0.08724534 -0.24289896 0.42639568 -0.066198245
000340 b5 3f 11 3e 44 d0 f5 3e b7 da 2f be fb d9 06 bd
       0.14184459 0.48010457 -0.17173277 -0.032922726
000350 a9 ec d0 3e 7c f5 cc 3d 5b 3d 9c 3d 95 3b b7 be
       0.40805557 0.1000776 0.0762889 -0.35787645
000360 c7 0c a9 3e bd 08 9e 3c 2f 33 bd 3e 99 36 6d be
       0.3301756 0.019291276 0.36953112 -0.23165359
000370 4a 64 e4 3e df cf 62 be 37 04 29 be 3e 52 a4 be
       0.44607764 -0.22149609 -0.16505514 -0.32093996
000380 3f 98 d4 3e 47 b7 5c be 3a 26 40 3e 3e fe cd bd
       0.41522405 -0.2155429 0.18764582 -0.100582585
000390 66 93 16 be ad 82 43 be ca 8d 07 be d9 d3 b7 bd
       -0.14704666 -0.19092818 -0.13237682 -0.089759536
0003a0 2f 4d 0e bd 7e b1 05 3e c0 b0 17 bf e0 58 84 bd
       -0.034741577 0.13055989 -0.59254074 -0.06462264
0003b0 23 9f ef 3e 6e d1 03 bd f7 d9 42 be de 26 a5 3e
       0.468011 -0.03218215 -0.1902846 0.32256216
0003c0 e5 91 b5 be ae 46 5e be 6c b7 34 3e b3 f1 45 bd
       -0.3546287 -0.2170665 0.17648095 -0.048326205
0003d0 ba d0 1a 3e 6f a1 66 be de 56 b9 be 26 38 63 be
       0.15118685 -0.2252252 -0.36199087 -0.22189388
0003e0 90 6c 03 be 94 95 81 3e f4 3f e0 be 0a 61 a0 3c
       -0.12834382 0.25309432 -0.43798792 0.019577522
0003f0 0f 0a 72 3e 73 c7 b0 3c f0 05 83 3e ec 0a da bc
       0.2363665 0.02157948 0.25590467 -0.026616536

lstm.bias_ih_l0 f4 [400]
000000 44 bb a3 3c 94 4c db be 09 68 58 be c7 27 76 bc
       0.019986756 -0.42831862 -0.21133436 -0.015024132
000010 12 34 c4 be 63 e7 a4 be cc e2 93 bd 11 00 a3 be
       -0.38320976 -0.32207784 -0.072209924 -0.31835988
000020 9a d9 e4 be 78 6a 56 3d 09 cf 84 be 6c 7c ab be
       -0.44697267 0.05234763 -0.25939205 -0.33493364
000030 ec d9 58 be e3 f2 01 bf da f1 6f be f8 cf 47 be
       -0.2117688 -0.5076124 -0.23432103 -0.19512928
000040 dd 24 59 be 48 2d 0b bf b3 3b 75 be 60 54 3e be
       -0.21205468 -0.5436597 -0.23948555 -0.18586874
000050 c2 bd 8f 3d c3 ad da bd 9d 34 b0 be b0 96 8b be
       0.07018615 -0.10677674 -0.3441514 -0.27263403
000060 34 5c 84 be 13 41 87 be 69 47 03 be 55 45 00 bf
       -0.25851595 -0.26416835 -0.1282021 -0.5010579
000070 a4 7f 4b be ab eb 32 be 8a 54 1d be 29 cd 35 be
       -0.1987291 -0.17472713 -0.1536428 -0.17754044
000080 d8 0f 91 be 62 35 bf be 47 f0 aa 3e 4a f7 d1 be
       -0.283324 -0.37345415 0.33386442 -0.4100898
000090 b7 b2 8b 3c 91 f2 c2 be 97 7a 1f be 98 26 d4 bd
       0.017052991 -0.38075688 -0.15574108 -0.10358924
0000a0 a4 d1 88 be fa c6 8e be 25 42 69 be be ca dd be
       -0.26722443 -0.27886182 -0.22779138 -0.43318743
0000b0 e0 44 9f be 1c eb 08 bf a9 c4 94 be 5e 60 eb bd
       -0.31107235 -0.5348375 -0.2905629 -0.1149299
0000c0 31 ab a3 be e7 8c 86 be 3e de 6c 3d 83 a3 15 bf
       -0.31966546 -0.26279375 0.057829134 -0.58452624
0000d0 ec 2a 32 be d7 41 00 bf cc 2d 92 be 8f c1 f3 be
       -0.17399186 -0.50100464 -0.28550565 -0.4760861
0000e0 11 0c 69 be 00 c2 eb be 69 0f a6 be 52 ba 16 bf
       -0.22758509 -0.46046448 -0.32433632 -0.5887805
0000f0 3b 3e db be bc 14 e6 be 1d 17 2d be ee e9 f2 3b
       -0.42820916 -0.44937694 -0.16903348 0.0074131405
000100 8f ab 65 bd 3a c2 92 be af 9e ac be 2b 39 8c bd
       -0.056071814 -0.28663808 -0.33714816 -0.068468414
000110 19 cb 6f be f3 15 10 be 82 77 cc be 4d 0a 8c be
       -0.2341732 -0.14070873 -0.39934927 -0.2735161
000120 c9 11 9b be f4 07 b8 be 88 f4 44 be 1b 8a 85 be
       -0.30287006 -0.35943568 -0.19233906 -0.2608193
000130 ed 34 59 be f6 2c ba be 2f 4d ca be 58 d2 47 be
       -0.21211596 -0.36362427 -0.3951201 -0.19513834
000140 8a 37 1a bf 1b b1 83 be 71 1e d3 bd 45 5f 46 be
       -0.60240996 -0.25721058 -0.103085406 -0.1937228
000150 b5 b5 66 bd 84 37 81 be 0b c5 a0 be 49 48 a0 be
       -0.056325633 -0.25237668 -0.31400332 -0.3130515
000160 6c 28 5e be f8 19 57 be 7a 6d 12 3e 6b e2 cb bd
       -0.21695107 -0.21006 0.14299574 -0.09955295
000170 5c fb a5 be 62 10 e1 be ae 0a 7a be 30 45 a9 be
       -0.32418334 -0.43957812 -0.24418136 -0.33060598
000180 d8 18 4b be 28 1a a4 bd 9e 77 86 be b0 39 78 be
       -0.19833696 -0.080128014 -0.26263136 -0.24240756
000190 a2 cc 12 3e 0f 44 9c be cb a7 54 be 2d fa 1c 3d
       0.14335874 -0.30520675 -0.20767133 0.038324524
0001a0 6f db 50 be d9 77 4b be f0 f8 eb 3d c8 9a 29 be
       -0.20396207 -0.19869937 0.115220904 -0.1656295
0001b0 94 ec 85 be db 7a 5c bd fe 5d 0a be ca 84 44 be
       -0.26157057 -0.0538281 -0.13512418 -0.1919128
0001c0 7e 1f 77 be 25 c1 f2 be 2c 7a ef bd 6e 67 33 be
       -0.24133107 -0.47412983 -0.11693224 -0.17519924
0001d0 fc 26 9f bc 3c 2b ef be 02 48 65 be f9 c7 90 39
       -0.019427769 -0.46712673 -0.2239075 0.00027614812
0001e0 64 88 d1 3d 3c 16 a9 bd d2 9c b5 be 72 e3 43 be
       0.102310926 -0.08256194 -0.35471207 -0.19129732
0001f0 e6 f2 6a be b1 7a 8c be c0 93 81 3e b4 0b d0 be
       -0.22944221 -0.27437356 0.25308037 -0.4063393
000200 38 34 87 bd 13 a7 97 ba 04 28 10 be f9 8e e8 bd
       -0.06601757 -0.0011570178 -0.14077765 -0.11355395
000210 bf 58 8d be 0b 12 87 be 4f 13 88 3e ff 54 b0 be
       -0.2760677 -0.26380953 0.2657723 -0.34439847
000220 09 d1 9b bd 26 4b 53 be 3e fe 3c bd f5 b2 23 3e
       -0.0760823 -0.20634136 -0.0461409 0.15986235
000230 e8 d4 ea bc 0e a4 30 bd a1 f5 b5 bd 79 43 ab be
       -0.028665975 -0.043125205 -0.088847406 -0.33449915
000240 1c 00 f8 bd 0d 92 83 be b2 33 60 be fb 30 f3 bd
       -0.12109396 -0.25697365 -0.2189472 -0.11874577
000250 8a 42 8a be 47 73 80 bd 04 64 4f 3e 50 fe f2 be
       -0.2700389 -0.062719874 0.20252997 -0.4745965
000260 db 3b c5 bd 29 78 9d be d9 0d 6a be f3 78 57 be
       -0.09630557 -0.30755737 -0.22856845 -0.21042232
000270 5e a4 84 bc 1c 3b 96 be a0 fd f6 bd be 90 b2 be
       -0.016191658 -0.29341972 -0.12060094 -0.34876055
000280 ad 0e a1 be a1 cd 81 be 96 0d 0b 3e ba 31 4d 3c
       -0.3145651 -0.25352195 0.13579401 0.012524063
000290 9c 62 9e 3e cf e4 f2 bd 95 9c 1e be d9 3a 4a be
       0.30934608 -0.11860048 -0.15489419 -0.19749011
0002a0 85 53 1c be 26 4a e9 bd 5f d8 c6 be 81 11 f9 bd
       -0.15266235 -0.11391096 -0.38836953 -0.12161542
0002b0 47 a9 6f be 81 16 30 be de 31 c8 bd 73 86 d2 bd
       -0.23404418 -0.17196085 -0.097751364 -0.102795504
0002c0 5c fe 37 be 89 bf 52 be f5 6a 68 be 7a 9f ec bd
       -0.17968124 -0.20580877 -0.22697051 -0.11553855
0002d0 6b 1f fe be de 2a 8f bd 84 ed 0f be 5e 62 a6 be
       -0.49633345 -0.06990598 -0.14055449 -0.32496923
0002e0 d1 4b 71 bd 66 9b aa be 9d 8a d1 be 9a 61 82 be
       -0.058910195 -0.33321685 -0.40926066 -0.2546509
0002f0 61 b4 85 be 57 f8 47 3d 7b 76 02 bd 67 b3 4b be
       -0.2611418 0.04882082 -0.031851273 -0.19892655
000300 a3 7b 9c be c6 15 93 be 75 80 53 be 11 32 77 be
       -0.30563077 -0.2872755 -0.20654471 -0.24140193
000310 61 e0 92 be 66 c8 61 bd 82 fc 7e bc 83 e6 3e be
       -0.28686813 -0.055122755 -0.015563132 -0.1864262
000320 a4 51 77 bd b4 f6 07 bb b2 69 c5 bc d6 16 3b 3d
       -0.060380593 -0.0020746412 -0.024098251 0.045676075
000330 60 66 c7 3d 54 1b be bc 55 c9 06 3d 54 37 61 bd
       0.09736323 -0.02320639 0.03290685 -0.054984406
000340 66 22 85 bc 98 a9 7b 3c 80 e4 7e bd 93 bb cf bc
       -0.016251754 0.0153602585 -0.062229633 -0.025357997
000350 6b 1b 0d bd f8 f1 72 bc 27 43 b2 bc 95 06 fe 3b
       -0.034449976 -0.014828198 -0.021760536 0.0077522495
000360 b3 59 c7 3c d1 32 f1 bc af 9e 3a bc bd 1f 18 3d
       0.024334764 -0.029443176 -0.011390372 0.037139643
000370 7f a8 4c bd 56 3a 87 3b 93 78 8e bc 2a 29 2e bd
       -0.049965378 0.004126827 -0.017391479 -0.042519726
000380 1c f8 87 bc b5 72 6f bd 16 a2 78 3d f5 96 bc bd
       -0.0165978 -0.058459003 0.060701452 -0.0920848
000390 b8 b9 cf ba 07 6e c7 3d d6 2a 41 3d bd d3 71 3a
       -0.0015848195 0.09737783 0.047159992 0.0009224972
0003a0 56 e7 80 bc 55 cc 7f bd 19 b1 b1 bd 63 7d 4f bd
       -0.01573531 -0.062450726 -0.08676357 -0.050656687
0003b0 20 52 ae bd 21 34 25 3d d6 66 f3 3c cb 4c 17 be
       -0.08511758 0.040332917 0.029712122 -0.14775388
0003c0 ce f5 13 3d e2 ba 09 bd c4 1c 87 bc 79 d9 83 3c
       0.03612309 -0.03362549 -0.016493209 0.01609491
0003d0 17 e1 9d bd c7 fb 19 3d a0 91 e0 3b 94 61 b7 bc
       -0.07708948 0.03759363 0.0068532974 -0.022385396
0003e0 f8 94 f0 3c 4e 42 80 bd a8 e8 6c bd fb e7 70 3d
       0.029367909 -0.062626466 -0.057839066 0.058814984
0003f0 a9 8a 61 3d 24 25 48 3c fa 21 e8 bc b6 28 07 3d
       0.055063877 0.012215886 -0.028336514 0.03299781

lstm.bias_hh_l0 f4 [400]
000000 f9 39 e5 3d 62 3a ac be f8 2e a5 be 38 4e a0 39
       0.11192698 -0.33638293 -0.32262397 0.00030575856
000010 12 44 8b be 17 7f ab be d6 28 cd 3d a9 a8 9d be
       -0.2720037 -0.334954 0.100175545 -0.3079274
000020 82 cf 90 be a6 5f 10 3e 2c 54 a3 be 15 32 81 be
       -0.28283316 0.14098987 -0.31900156 -0.25233522
000030 a2 66 1c be 33 9e f4 be de 5b 26 be ad 7c 4c bd
       -0.15273526 -0.47776946 -0.16245982 -0.049923588
000040 13 3b 26 be 58 1c f4 be d1 f9 7e be 04 6e 52 be
       -0.16233473 -0.47677875 -0.24899985 -0.2054978
000050 94 9d 91 bc 2e 9f 4b be 5d c3 eb be 70 24 84 be
       -0.017775334 -0.19884941 -0.46047488 -0.2580905
000060 14 c4 0d be 28 7c b3 be 84 21 8c bd 57 73 cc be
       -0.13844329 -0.3505566 -0.0684233 -0.39931747
000070 27 f5 90 be 8f 97 51 be 54 04 77 be 77 ef 7b be
       -0.28312036 -0.20467971 -0.24122745 -0.24603067
000080 7e 48 9a be 76 ca 93 be 9e 35 29 3e 9e e7 ec be
       -0.30133432 -0.28865403 0.1652436 -0.4627046
000090 fa 98 19 bc b9 8e b4 be a7 62 c7 bd 74 b6 8e bd
       -0.009374851 -0.3526514 -0.09735613 -0.06968394
0000a0 2e 17 7f be 03 f7 82 be 44 97 88 be f9 b0 db be
       -0.24911186 -0.2557908 -0.26677907 -0.42908457
0000b0 a8 90 8d be 30 d4 c3 be 71 e6 3f be e8 5f 5a bd
       -0.27649426 -0.38247824 -0.1874025 -0.05331412
0000c0 46 8f a4 be d1 05 15 be 30 38 6c 3d bf 2c 05 bf
       -0.3214056 -0.14553 0.057670772 -0.520214
0000d0 c5 21 bc bd 3a c2 0d bf 44 c6 a6 be 39 d0 d9 be
       -0.091861285 -0.5537449 -0.3257314 -0.42541674
0000e0 33 ff 58 be 2d 2e 06 bf a3 f9 99 be ea e9 03 bf
       -0.21191101 -0.5241421 -0.3007327 -0.515288
0000f0 35 05 c8 be 4a 09 a5 be 44 a0 b5 bd ce ac 81 bd
       -0.39066473 -0.3223365 -0.08868459 -0.06331788
000100 8c 4f 50 bd 5b e3 6d be a5 4f b3 be b7 bb d6 bd
       -0.05085711 -0.2323126 -0.350217 -0.104850225
000110 d4 3c a8 be bf f3 c7 bd bf 3c aa be ff 6a 94 be
       -0.32858908 -0.09763288 -0.3324947 -0.28987882
000120 4b c8 11 be 90 c3 d2 be e8 db 35 be 63 82 88 be
       -0.14236562 -0.41164827 -0.17759669 -0.26661977
000130 77 64 73 be 06 ee cd be 09 e3 ad be d2 1c 8a be
       -0.23768793 -0.4022066 -0.33962277 -0.26975113
000140 37 de 1a bf 51 b6 3e be ed 15 df bd 60 33 8c be
       -0.6049532 -0.18624236 -0.10892854 -0.27382946
000150 8e 18 e5 bd ae 12 d4 be 77 74 d2 be ed be f1 be
       -0.11186324 -0.414205 -0.4110448 -0.47215977
000160 3a d1 89 be 6c 62 45 be d6 75 ea 3c e3 5d 58 be
       -0.2691744 -0.19275826 0.028620642 -0.21129565
000170 2b a1 9d be c0 92 a8 be b0 a9 c2 be d0 de f7 be
       -0.30787024 -0.3292446 -0.38020086 -0.4841218
000180 9f 75 86 be 33 e2 7d be 83 33 3b be 56 1e 8b be
       -0.26261613 -0.2479332 -0.18281369 -0.27171582
000190 20 03 9b 3d 7c 7c a0 be a6 91 02 be 16 3d 30 3e
       0.075689554 -0.31344974 -0.12750873 0.17210802
0001a0 19 6b 75 be 0f 17 2e be 2f c6 2c bd ac a9 7b be
       -0.23966636 -0.17000984 -0.04218119 -0.24576443
0001b0 06 1d 37 be 53 3f eb 3b 0f 3e f0 bd 80 b3 93 be
       -0.17882165 0.0071791797 -0.11730587 -0.28847885
0001c0 06 be 62 be 7b 8f ed be bf 5b 51 be 7e 61 03 be
       -0.221428 -0.4639853 -0.20445155 -0.12830159
0001d0 c4 da ec bd b0 9e a0 be 32 cf 4a be 82 11 fe bd
       -0.11565164 -0.3137107 -0.19805601 -0.12405683
0001e0 9d 09 62 3d b4 c3 92 bd 23 31 a0 be 28 93 f3 3a
       0.05518495 -0.07166234 -0.31287488 0.0018583285
0001f0 2c 51 72 be 20 c3 93 be 3c e9 33 3e 76 4f c4 be
       -0.23663777 -0.28859806 0.1756944 -0.38341874
000200 d6 05 0b be b6 6b f3 bc 80 33 c2 bd b5 2d 4a bd
       -0.13576445 -0.029714447 -0.09482479 -0.049359996
000210 07 ae 52 be 4c 7f 80 be a9 89 b3 3e cf 32 f2 be
       -0.20574199 -0.2509712 0.35065964 -0.4730439
000220 83 85 c3 3d f0 d9 71 be 25 b8 0d bd dc ab af 3d
       0.0954695 -0.23618293 -0.034599442 0.085777014
000230 71 8e 32 be fe 80 25 be 78 2d 20 be c9 18 b1 be
       -0.1743715 -0.16162488 -0.15642345 -0.34589222
000240 ca 90 67 be 22 18 c3 be 19 eb 91 be 9a f8 35 bc
       -0.22613826 -0.3810435 -0.28499678 -0.0111066345
000250 3c 3e a9 be bc bc 24 be 1f c1 f3 3d bc 0b 95 be
       -0.33055294 -0.16087621 0.11902069 -0.29110515
000260 ad 00 35 be a7 d6 a6 be 45 75 c2 be 4f 26 c0 be
       -0.17676039 -0.32585642 -0.37980095 -0.37529227
000270 40 40 48 bd 19 d0 91 be 67 d5 b6 bd ed 6a ec be
       -0.0488894 -0.28479078 -0.08927422 -0.46175328
000280 3a c8 ec be d2 9d 51 be 15 8d 5c 3d 62 d1 f7 3d
       -0.4624651 -0.2047036 0.053845484 0.121004835
000290 ea bc a2 3e 20 20 4d 3d 5b 2e 07 be 9f a6 5c be
       0.31784755 0.050079465 -0.13201277 -0.21547936
0002a0 e9 06 20 be 12 1c 8b bd ed de c6 be 9c 49 58 be
       -0.15627636 -0.06792463 -0.38841954 -0.2112183
0002b0 90 53 81 be 65 1d 47 be a7 90 3d be c2 4f 20 be
       -0.25259066 -0.19444807 -0.18512212 -0.15655425
0002c0 68 81 53 be d9 1c 07 be fd aa 53 be 54 a3 4f be
       -0.20654833 -0.13194598 -0.20670696 -0.20277148
0002d0 e1 b0 ae be 58 43 24 bd 82 1b 83 3b c2 72 98 be
       -0.34119323 -0.040103287 0.004001082 -0.29775053
0002e0 53 0b 8e bd ff 97 59 be ac 41 a3 be c0 d7 7d be
       -0.06935754 -0.21249388 -0.3188604 -0.24789333
0002f0 01 77 ad bd 75 0c db 3d d3 f1 9c bd 7a 8b f3 bc
       -0.08469964 0.10695735 -0.07663312 -0.029729594
000300 84 47 96 be cd a6 55 be 2f 41 2f be 35 65 ac be
       -0.29351437 -0.2086441 -0.1711471 -0.33670965
000310 2f 09 6a be f0 7f 93 3d 51 7c e7 bd d8 b6 25 be
       -0.22855066 0.072021365 -0.11303008 -0.1618303
000320 ab 69 d8 bd 28 30 fc bc 54 31 fb 3c 86 75 a1 bd
       -0.105670296 -0.030784681 0.03066317 -0.07883744
000330 b6 ee 9f bd 28 7b 3a 3d a2 02 79 3d e2 a9 40 3d
       -0.078092024 0.045527607 0.060793526 0.047037013
000340 8f a2 10 bb 50 c7 5d 3d 54 8c 7a 3d bd bd e3 ba
       -0.0022069549 0.054145157 0.061168984 -0.0017375272
000350 1f 46 67 3d f2 a7 e1 bb de 1f e4 bb 41 53 82 3b
       0.056463357 -0.0068864757 -0.0069618067 0.00397721
000360 85 95 11 bc 2b 89 9d 3d d5 5b a2 3c 0f 53 46 bd
       -0.008885746 0.07692178 0.01981918 -0.048419055
000370 f5 54 7e ba 72 cf 9d bc 12 b3 b9 3d bf 99 f3 3c
       -0.00097019906 -0.019263957 0.09067358 0.029736398
000380 27 01 5c 3d 76 4c ad 3d b0 07 da 3d ab 4d b5 3d
       0.053712036 0.084618494 0.106459975 0.088527046
000390 1f 4b b8 3c 37 89 33 3c 4c 24 a1 3a cb 1b 46 3b
       0.022496758 0.010958008 0.0012294143 0.0030228968
0003a0 f8 21 6e 3c 47 20 ea 3c 4f 84 bd bd 81 da d3 3c
       0.014534466 0.028579844 -0.092537515 0.025861027
0003b0 9f 70 19 3d 0b 8f 82 3a c1 99 09 bc a8 3d 94 bd
       0.03746092 0.0009960843 -0.008398474 -0.072383225
0003c0 c4 6f af bc 6d 2c f9 3c aa e8 a7 bd 92 14 32 3b
       -0.021415599 0.030416692 -0.08198674 0.0027172905
0003d0 b6 98 82 3d e1 6d 17 3d fd 5d 83 bc 54 36 81 3c
       0.063767835 0.036970023 -0.016036028 0.015772976
0003e0 71 8f ee bb 04 b6 c3 3c dc 81 3c bd 0f 3e 29 bd
       -0.007280283 0.023890503 -0.04602228 -0.04131895
0003f0 02 cf 89 bd fb c8 59 3c 78 8d f7 3b 83 03 50 3c
       -0.06728937 0.013292546 0.007554706 0.01269615

linear.weight f4 [1, 100]
000000 ec a9 16 3e e8 42 89 bd 5c db 8c 3d 18 a6 89 3e
       0.14713258 -0.067022145 0.06877777 0.26884532
000010 16 a6 e9 bd 37 56 e1 3d d8 a5 4a be ae fd 6e 3d
       -0.114086315 0.11002772 -0.19789827 0.058347397
000020 f9 d3 dc bd 40 74 98 be 2b 08 f3 3d f6 93 ee bc
       -0.10782618 -0.29776192 0.11866792 -0.029123288
000030 6c 2d 3c be 41 32 a6 3c c5 46 5d bd 8f d4 36 3e
       -0.18376702 0.020287635 -0.05402257 0.17854522
000040 c4 00 50 be ed 56 87 bb 3b 9b 0f be ee 90 5f 3e
       -0.20312792 -0.0041302354 -0.1402406 0.2183263
000050 49 ad 8b be 22 81 35 3e 8c d2 25 3d 9b d6 3c 3e
       -0.27280644 0.17725042 0.040483996 0.1844124
000060 5d 82 2c be 58 ee 8c 3d 16 bd 89 3b a7 b5 94 3c
       -0.16846605 0.06881398 0.004203449 0.018153025
000070 e9 b4 e7 3d a8 3d a8 3d 3f 7e 6f 3d 61 eb a6 3d
       0.11313803 0.08214885 0.058470007 0.08150364
000080 d7 18 bc 3d e3 ae 1f bd 3c 10 48 3e 35 f0 80 3b
       0.09184425 -0.038985144 0.19537443 0.003934885
000090 9d 6a 41 be 7c 1b b9 3c e5 a6 ed 3d 17 6f ec bd
       -0.18888326 0.022596113 0.11604098 -0.11544626
0000a0 78 de 08 3e 74 95 33 3e f3 56 08 be 3d c2 91 3c
       0.13366115 0.1753748 -0.13314418 0.017792815
0000b0 b5 36 bd bd e0 f1 a2 3d b4 a1 16 3e f9 69 0c 3e
       -0.0923895 0.0795629 0.14710122 0.137123
0000c0 a3 0f 5a bd f8 42 9f bd 03 1a 38 3e 83 6f 01 3c
       -0.05323757 -0.07776445 0.17978673 0.007900122
0000d0 0e a9 07 be a2 e3 f5 bc 23 d1 a6 bd 70 0a 59 bd
       -0.13248083 -0.03001577 -0.081453584 -0.05298847
0000e0 31 67 f5 bd e3 4a 7c bd 82 90 94 3d 20 88 9a bc
       -0.11982573 -0.061594855 0.07254125 -0.018863738
0000f0 29 fa 15 3c b6 be 98 3d ac d3 02 3e 7c 46 23 3e
       0.009153881 0.0745825 0.12776059 0.15944856
000100 d2 c4 16 bc 8a 6d 86 bd b9 2e ad bd d9 7a 41 be
       -0.009202199 -0.06563862 -0.08456177 -0.18894519
000110 ae bb ac 3b 54 ec da bd 27 95 d0 3c 66 92 aa bd
       0.0052713966 -0.10689607 0.025461746 -0.083287045
000120 0f c6 2f be a1 ae cc 3d 1e 63 d3 bd df ea c0 bd
       -0.17165397 0.09994245 -0.103216395 -0.09419798
000130 5c 43 1c 3e 17 72 a8 bd 91 61 f1 3c ab e9 f4 3d
       0.1526007 -0.08224886 0.029465469 0.11958631
000140 2c 0c 3e 3c 42 c8 9e 3d 69 4b 86 3e 59 46 1b be
       0.011599582 0.0775304 0.26229408 -0.15163554
000150 6d ff 0b be 26 3c ab bd 19 1e 9c bc 4f 1e 42 bd
       -0.13671656 -0.08361082 -0.01905732 -0.047392186
000160 7c aa 3c be 0d 48 6d bd 67 19 a9 3e 2e eb 39 be
       -0.1842441 -0.05793004 0.33027193 -0.1815612
000170 ff a5 0a ba 00 cf 07 bd 78 af a2 bd 18 81 19 bd
       -0.00052890176 -0.033156395 -0.07943624 -0.03747663
000180 af 78 80 bd 62 44 5c be ad 08 00 3e 84 01 b4 3d
       -0.062730186 -0.21510461 0.1250331 0.087893516
